trained_model.pt (torch, 542398 bytes, 61 tensors)

rnn.weight_ih_l0 f4 [64, 202]
0.020718053 0.12029733 0.0057412684 -0.033711314 -0.08544278 0.018444905 0.12721649 0.07213089
-0.02239528 0.08783423 0.055024713 0.022677606 -0.12097144 0.085866086 -0.27426493 0.19509242
-0.0057027633 -0.13715102 -0.38965955 -0.3374508 -0.10755053 -0.2194679 -0.021363337 0.09961617
-0.09000346 -0.031107545 -0.06545854 0.24855986 0.15591238 0.22389317 0.17395331 0.27210787
0.47953543 0.08438586 0.31274602 0.22792003 0.2072351 0.10921838 0.050038144 0.2285582
0.33840933 0.18690616 0.3499117 0.24866831 -0.17688215 -0.2495766 -0.19845083 -0.20637414
-0.009317305 -0.072953016 0.08080974 -0.31685755 -0.2507294 -0.031410538 -0.18948692 -0.0921876
-0.4133756 -0.057943773 0.18348643 -0.03898272 0.26736388 -0.03491319 0.0977129 0.17359255
-0.0040036705 -0.08272352 0.027070591 0.09234024 -0.23198472 0.049828544 -0.25643858 -0.015439719
0.15017813 -0.027443748 -0.26280168 0.06146331 0.29029313 0.29117548 0.41711158 -0.108137436
-0.10094292 -0.097346775 -0.06367271 0.20301633 0.19646189 0.25427654 -0.25859317 0.25666294
0.2369086 0.15904438 -0.19349499 -0.35885683 -0.13665403 0.33454174 0.046047937 0.14404643
-0.3699573 -0.08223143 0.4331971 -0.4424977 0.38358524 -0.2180913 -0.3003258 0.44135484
0.22143005 0.14281952 -0.22664127 -0.37015083 0.11541164 -0.24688183 -0.22047861 -0.25984856
0.2468293 0.2386875 -0.089997806 -0.29945186 0.042260855 0.24713184 0.12494354 0.08082249
-0.06659601 -0.1116225 0.35178217 -0.19431894 0.028090728 -0.13245232 0.04327937 0.13890773
0.05232853 0.046400003 -0.17544653 0.016965302 0.18318565 0.1991297 0.054979075 -0.13853869
-0.10021131 0.27940527 -0.023885092 0.00667787 0.17459004 0.0805071 0.10635814 0.1058756
0.055163655 0.3619703 -0.07816684 -0.1669977 -0.07484466 0.10303459 -0.26493064 -0.08099508
0.10052194 -0.13542326 0.068753764 -0.20628746 0.06695561 -0.07464404 0.07129824 0.046717376
-0.09463721 0.112465315 -0.058361825 0.13683654 0.13427487 -0.0005682293 0.04313064 0.36465785
-0.03862959 0.30079886 0.056842573 0.07170586 0.08932767 -0.14706483 0.043911602 0.4707184
0.012103645 0.15418942 -0.12526219 -0.22690193 -0.21794337 -0.056712914 -0.0884686 -0.2296562
0.23455359 0.16896844 0.19498432 -0.035326958 0.048061095 0.0008909106 0.12482079 0.00730695
-0.22805622 0.047447413 0.14825481 -0.033656538 0.031903684 -0.03774233 0.107993856 0.06828934
0.0808706 -0.010422766 -0.063307375 -0.0017110556 -0.0001706332 -0.11154127 -0.028611884 -0.03375593
-0.13590878 -0.16848704 -0.0566199 -0.020007584 -0.21957222 -0.1804267 -0.07001212 0.16786762
-0.17469668 -0.14500752 -0.29594004 -0.27738056 0.087597206 -0.091225594 0.021675428 -0.10550383
0.12181854 0.12288002 0.007997066 0.043191344 0.05451014 -0.023939935 0.041620806 -0.055732165
0.1565606 -0.10432422 0.0944797 -0.23623875 0.1056207 -0.08353689 0.07780301 -0.16599354
-0.16530608 -0.123717085 -0.24517833 -0.22169973 0.11790744 -0.21873067 -0.26607746 -0.27335426
-0.28308246 -0.14481652 0.05109624 0.009663597 0.030951906 -0.26334354 -0.24737279 -0.35064903
00000000: e8b8 a93c 725e f63d 4021 bc3b e014 0abd
00000010: a0fc aebd c519 973c 0a45 023e 5cb9 933d
00000020: 4e76 b7bc 6fe2 b33d 9861 613d 63c6 b93c
00000030: e0bf f7bd 8fda af3d 746c 8cbe 4fc6 473e
00000040: 3fde babb 5171 0cbe 7581 c7be 5ac6 acbe
00000050: 7443 dcbd 31bc 60be 2a02 afbc 9003 cc3d
00000060: bc53 b8bd 40d5 febc 210f 86bd 7a86 7e3e
00000070: 7fa7 1f3e 4044 653e d120 323e b951 8b3e
00000080: ab85 f53e 7ed2 ac3d 3f20 a03e de63 693e
00000090: 7035 543e e3ad df3d ccf4 4c3d 290b 6a3e
000000a0: fd43 ad3e 5464 3f3e a027 b33e e8a2 7e3e
000000b0: 9820 35be 0291 7fbe b236 4bbe be53 53be
000000c0: 9ca7 18bc 6468 95bd 947f a53d 273b a2be
000000d0: 9b5f 80be 56a8 00bd dc08 42be dacc bcbd
000000e0: f7a5 d3be 7356 6dbd dee3 3b3e 58ac 1fbd
000000f0: ebe3 883e 2201 0fbd b31d c83d 3fc2 313e
00000100: 3931 83bb f36a a9bd 25c3 dd3c e11c bd3d
00000110: 678d 6dbe 0419 4c3d eb4b 83be e0f6 7cbc
00000120: 4cc8 193e b6d1 e0bc f18d 86be f4c0 7b3d
00000130: 4da1 943e f414 953e a68f d53e 2977 ddbd
00000140: 29bb cebd bf5d c7bd d666 82bd 83e3 4f3e
00000150: 4e2d 493e 8930 823e 5366 84be 5369 833e
00000160: 2b98 723e 88dc 223e 8d23 46be 15bc b7be
00000170: 09ef 0bbe 0e49 ab3e c39c 3c3d e880 133e
00000180: 0b6b bdbe f468 a8bd 03cc dd3e 0f8f e2be
00000190: 4965 c43e 5353 5fbe 4ec4 99be 43f9 e13e
000001a0: 8fbe 623e 483f 123e a614 68be 6984 bdbe
000001b0: f05c ec3d 97ce 7cbe 25c5 61be df0a 85be
000001c0: d2c0 7c3e 7f6a 743e c550 b8bd c151 99be
000001d0: b819 2d3d 2110 7d3e 66e2 ff3d 4386 a53d
000001e0: 7d63 88bd 569a e4bd cb1c b43e 8bfb 46be
000001f0: 871e e63c 95a1 07be b545 313d d43d 0e3e
00000200: 7156 563d ee0d 3e3d 41a8 33be d1fa 8a3c
00000210: 0595 3b3e a8e8 4b3e bd31 613d 16dd 0dbe
00000220: 963b cdbd 350e 8f3e abaa c3bc 09d2 da3b
00000230: bbc7 323e e8e0 a43d 4cd2 d93d 4ed5 d83d
00000240: 49f3 613d 2c54 b93e f015 a0bd 7201 2bbe
00000250: 2848 99bd cd03 d33d fda4 87be c0e0 a5bd
00000260: 72de cd3d 65ac 0abe c6ce 8c3d 053d 53be
00000270: 0620 893d f9de 98bd d004 923d b85a 3f3d
00000280: 27d1 c1bd 3754 e63d cf0c 6fbd e11e 0c3e
00000290: 5a7f 093e 39f5 14ba c1a9 303d 6fb4 ba3e
000002a0: 103a 1ebd 4f02 9a3e c2d3 683d 86da 923d
000002b0: 6df1 b63d 2a98 16be a7dc 333d 0102 f13e
000002c0: 5e4e 463c d5e3 1d3e bb44 00be fb58 68be
000002d0: 8c2c 5fbe cd4b 68bd 062f b5bd ff2a 6bbe
000002e0: d12e 703e 1006 2d3e f8a9 473e 00b3 10bd
000002f0: b6db 443d 008c 693a 0ba2 ff3d 246f ef3b
00000300: 9287 69be 3858 423d 1cd0 173e 70db 09bd
00000310: 70ad 023d b497 1abd e22b dd3d 48db 8b3d
00000320: 7c9f a53d 40c4 2abc 4ca7 81bd 8045 e0ba
00000330: 00ec 32b9 c06f e4bd 7863 eabc a843 0abd
00000340: ac2b 0bbe de87 2cbe 45ea 67bd f2e6 a3bc
00000350: 8ad7 60be c7c1 38be 8462 8fbd 7de5 2b3e
00000360: b0e3 32be da7c 14be 7485 97be d304 8ebe
00000370: 2a66 b33d 7cd4 babd ab90 b13c 6412 d8bd
00000380: 007c f93d 85a8 fb3d 2006 033c 68e9 303d
00000390: 0646 5f3d af1d c4bc 947a 2a3d 6947 64bd
000003a0: 6c51 203e f0a7 d5bd 937e c13d 92e8 71be
000003b0: aa4f d83d 6415 abbd 2f57 9f3d 36fa 29be
000003c0: ff45 29be 625f fdbd 0710 7bbe 4105 63be
000003d0: 7579 f13d effa 5fbe 4e3b 88be 17f5 8bbe
000003e0: 2ff0 90be c84a 14be 4a4a 513d 1054 1e3c
000003f0: da8e fd3c f7d4 86be 4b4f 7dbe 4588 b3be

rnn.weight_hh_l0 f4 [64, 64]
-0.087851085 -0.34192792 0.11225814 0.07436695 0.16676937 0.1163687 0.3340855 0.1321842
-0.0044445996 -0.06833982 -0.046745494 -0.27652404 -0.2387018 -0.21789184 -0.07706413 -0.06614833
0.24563308 -0.35856313 0.15011042 0.31099552 -0.1795804 -0.11707992 -0.02480463 0.26317248
0.24383728 -0.051853854 0.036461465 0.13371852 0.24083035 0.23870938 0.1777131 0.040041063
0.044871647 -0.30950812 0.16371377 0.2097733 0.079648286 0.018617911 -0.14201483 0.17444706
-0.024134587 -0.21401028 -0.22141914 -0.32911956 0.34387282 -0.14049527 -0.0060242605 -0.16469066
-0.3077403 0.038988363 0.2574725 0.0059140064 -0.030822506 -0.22987826 -0.114972 -0.23842798
-0.2978092 -0.13070613 -0.13616556 0.2967768 0.3028291 -0.13793468 -0.13555141 0.2321446
0.16243555 -0.100279465 -0.02328055 -0.08256987 0.08863391 0.07717929 0.2077827 0.23319562
-0.23136827 -0.16776182 -0.13651559 -0.3736055 -0.28860465 -0.10587782 -0.11038297 0.30840898
0.2777598 0.3391654 0.21438093 0.22561164 -0.11667783 -0.07328245 0.0072026793 0.21356474
-0.17903821 -0.1475964 0.25153172 -0.17506397 0.29119006 -0.047640245 0.14981158 0.20962818
0.22478336 0.24180517 -0.0012174794 -0.023416728 0.014565807 0.32745546 -0.1464976 0.2743132
-0.31216896 -0.08953367 0.29738393 -0.13145179 -0.25804612 -0.014049765 -0.2777426 0.24856398
0.04740604 -0.12780179 0.11081478 -0.03055406 -0.21439105 0.10389124 0.18701436 -0.18029523
-0.30864477 -0.29673934 -0.06371594 0.3209581 -0.009436468 -0.17626499 -0.15432575 0.16916518
-0.19737343 0.09281109 0.12882532 -0.24894166 0.15893668 -0.07753876 -0.01742448 0.15220354
0.13724177 0.12005375 0.33805293 -0.022318596 -0.17107816 0.2186238 0.045631226 -0.24072476
-0.052375674 0.34506312 -0.14503878 0.22582084 0.21425658 0.14358245 -0.34117115 -0.1882296
0.31174824 0.30945012 0.09925178 0.21271397 -0.31276414 -0.04970931 -0.087458365 -0.35504624
0.08002258 0.14743346 -0.15935305 0.29112464 0.35101023 -0.22411506 0.021467185 -0.23662385
-0.05384921 0.107458554 0.13075323 -0.076018624 0.15309751 0.2872549 0.29731727 0.15265213
-0.021676643 -0.20859292 0.13886844 0.25271657 0.12169811 0.043195754 0.3464504 -0.18664813
0.3121415 0.30567423 0.11820638 -0.113112085 0.048613515 0.13391154 -0.04144984 -0.09269765
-0.119796455 0.057414945 0.34942985 0.3327459 0.10389856 -0.28608045 -0.015306403 -0.03932516
-0.14209992 0.07819276 -0.29277945 -0.08819133 -0.14926493 -0.26796404 -0.23685618 0.258174
0.24887295 -0.12004989 0.33458766 0.03757662 -0.052114453 0.18697123 -0.32332382 -0.045295168
0.025117904 -0.06329669 -0.055974487 -0.11323592 0.13532518 0.3323968 0.034931 -0.22950985
-0.072892316 -0.26031575 0.13555618 -0.29349202 0.20924886 0.20239632 0.20523614 -0.0612516
0.17537126 0.13646697 -0.21120891 -0.04364003 0.15253119 -0.105517484 0.18733028 -0.13904512
-0.08114626 -0.15646021 -0.011278081 -0.27483156 0.14963895 0.017807454 0.036545157 -0.1616615
-0.14268468 -0.14261736 0.023795407 0.11932563 0.045115907 0.106425904 -0.24831423 0.22877431
00000000: 45eb b3bd 2d11 afbe 99e7 e53d b34d 983d
00000010: 97c5 2a3e b752 ee3d 410d ab3e 4c5b 073e
00000020: 01a4 91bb bff5 8bbd 3478 3fbd 8f94 8dbe
00000030: 3f6e 74be 0a1f 5fbe ccd3 9dbd c778 87bd
00000040: 3d87 7b3e 9695 b7be 8cb6 193e ce3a 9f3e
00000050: ede3 37be 99c7 efbd 1433 cbbc 8bbe 863e
00000060: 7bb0 793e b564 54bd 9e58 153d 82ed 083e
00000070: 3b9c 763e 3b70 743e 6cfa 353e 1902 243d
00000080: 55cb 373d d977 9ebe 95a4 273e d0ce 563e
00000090: a41e a33d 9784 983c 566c 11be 40a2 323e
000000a0: e6b5 c5bc 8325 5bbe b3bb 62be 5c82 a8be
000000b0: 1910 b03e fedd 0fbe 2967 c5bb aba4 28be
000000c0: 2390 9dbe 43b2 1f3d 6fd3 833e 48ca c13b
000000d0: 7b7f fcbc 3565 6bbe 7176 ebbd 7726 74be
000000e0: 737a 98be d4d7 05be fc6e 0bbe 21f3 973e
000000f0: 6a0c 9b3e c03e 0dbe fdcd 0abe 50b7 6d3e
00000100: 8155 263e 525f cdbd dab6 bebc 641a a9bd
00000110: b285 b53d 2d10 9e3d fdc4 543e d5ca 6e3e
00000120: ceeb 6cbe c1c9 2bbe beca 0bbe 3849 bfbe
00000130: fdc3 93be 78d6 d8bd 7710 e2bd c8e7 9d3e
00000140: 8836 8e3e 16a7 ad3e ad86 5b3e bd06 673e
00000150: c9f4 eebd 1c15 96bd 7404 ec3b b7b0 5a3e
00000160: cb55 37be 8323 17be c4c8 803e f843 33be
00000170: dd16 953e 6b22 43bd 3568 193e c5a8 563e
00000180: 9c2d 663e c69b 773e d493 9fba 70d4 bfbc
00000190: 6ca5 6e3c 3ea8 a73e 7803 16be c872 8c3e
000001a0: 9cd4 9fbe 6e5d b7bd b542 983e 4c9b 06be
000001b0: 9f1e 84be fc30 66bc 4734 8ebe 8e87 7e3e
000001c0: d62c 423d 79de 02be dcf2 e23d 824c fabc
000001d0: 5489 5bbe eec4 d43d b180 3f3e 509f 38be
000001e0: b006 9ebe 38ee 97be 817d 82bd 9f54 a43e
000001f0: 6a9b 1abc cf7e 34be 9207 1ebe a339 2d3e
00000200: 431c 4abe be13 be3d c9ea 033e 90ea 7ebe
00000210: 4cc0 223e a4cc 9ebd c8bd 8ebc 3fdb 1b3e
00000220: 1b89 0c3e bede f53d 4615 ad3e 7dd5 b6bc
00000230: 1d2f 2fbe ebde 5f3e cfe7 3a3d 8d80 76be
00000240: e087 56bd 1dac b03e 0c85 14be 943d 673e
00000250: 1466 5b3e 4707 133e fcad aebe 43bf 40be
00000260: 779d 9f3e 3f70 9e3e 8444 cb3d b1d1 593e
00000270: 9f22 a0be fd9b 4bbd 5f1d b3bd 9fc8 b5be
00000280: e1e2 a33d ccf8 163e 722d 23be 4a0e 953e
00000290: 9db7 b33e 6b7e 65be f3db af3c 864d 72be
000002a0: fd90 5cbd 3b13 dc3d 2de4 053e a7af 9bbd
000002b0: 98c5 1c3e 1313 933e f839 983e d750 1c3e
000002c0: 3793 b1bc 6299 55be 8733 0e3e 1164 813e
000002d0: dc3c f93d 08ee 303d f261 b13e b020 3fbe
000002e0: 03d1 9f3e 5581 9c3e 3016 f23d 4fa7 e7bd
000002f0: f71e 473d 1b20 093e 4fc7 29bd 44d8 bdbd
00000300: d857 f5bd ef2b 6b3d 78e8 b23e ac5d aa3e
00000310: c5c8 d43d 2379 92be b5c7 7abc 6b13 21bd
00000320: a482 11be 8723 a03d 30e7 95be a89d b4bd
00000330: e8d8 18be 9532 89be 6d8a 72be 622f 843e
00000340: 8dd8 7e3e b7dc f5bd 134f ab3e f1e9 193d
00000350: f775 55bd 6375 3f3e b38a a5be 6d87 39bd
00000360: 10c4 cd3c b2a1 81bd 8145 65bd 3ce8 e7bd
00000370: af92 0a3e ea2f aa3e cf13 0f3d a104 6bbe
00000380: 9148 95bd 1b48 85be 3dcf 0a3e 9644 96be
00000390: 5545 563e fb40 4f3e 6c29 523e f5e2 7abd
000003a0: 8694 333e ffbd 0b3e 2647 58be e3bf 32bd
000003b0: 2331 1c3e 8d19 d8bd 82d3 3f3e d861 0ebe
000003c0: 0330 a6bd 1b37 20be b3c7 38bc b9b6 8cbe
000003d0: f43a 193e f0e0 913c 60b0 153d 988a 25be
000003e0: ef1b 12be 490a 12be 96ee c23c ff60 f43d
000003f0: 75cb 383d d3f5 d93d 1646 7ebe d043 6a3e

rnn.bias_ih_l0 f4 [64]
-0.33956242 -0.07052649 -0.15191925 0.2544736 0.015363191 -0.1163326 0.035808645 -0.14498591
0.14108992 0.21249203 0.12462764 -0.056815192 0.20763034 -0.17642012 -0.15669896 0.08473143
-0.12397908 -0.1545614 0.035655484 0.29685894 -0.18025298 -0.27814224 -0.15087627 -0.3993172
-0.020694923 0.13423786 0.071897656 0.105129234 0.1508052 0.39593953 0.25331908 -0.06775511
0.003917612 -0.07781604 -0.03256305 -0.03702106 -0.383726 -0.2743224 -0.464314 0.06443349
0.15965322 -0.15589878 -0.34533215 -0.128656 -0.20114952 -0.03013887 -0.33297208 -0.18238676
-0.18695135 -0.08007747 -0.17009118 -0.11732623 0.011197307 0.10677382 0.03612537 0.031233922
-0.25887698 0.15134402 -0.17750096 0.2735247 -0.17703724 0.15532161 -0.095281236 0.024048723
00000000: 20db adbe 3170 90bd b890 1bbe 5d4a 823e
00000010: e5b5 7b3c c93f eebd 16ac 123d 3077 14be
00000020: e079 103e 8397 593e c73c ff3d 0cb7 68bd
00000030: 0c9d 543e 7aa7 34be b175 20be ac87 ad3d
00000040: bee8 fdbd 5845 1ebe 7c0b 123d e5fd 973e
00000050: 3d94 38be a968 8ebe 4f7f 1abe 4e73 ccbe
00000060: 6688 a9bc a675 093e 143f 933d ff4d d73d
00000070: ae6c 1a3e 96b8 ca3e 0ab3 813e 31c3 8abd
00000080: 505f 803b 045e 9fbd d560 05bd 65a3 17bd
00000090: bc77 c4be fc73 8cbe 91ba edbe b5f5 833d
000000a0: 227c 233e eea3 1fbe 60cf b0be 66be 03be
000000b0: 24fa 4dbe cbe5 f6bc 517b aabe 98c3 3abe
000000c0: 2d70 3fbe a8ff a3bd 622c 2ebe bc48 f0bd
000000d0: e974 373c 3cac da3d 32f8 133d 48de ff3c
000000e0: 868b 84be edf9 1a3e d0c2 35be 6e0b 8c3e
000000f0: 4049 35be a10c 1f3e cf22 c3bd d401 c53c

rnn.bias_hh_l0 f4 [64]
-0.3151653 -0.1509073 0.013475277 0.18141103 0.04052593 -0.0023276547 0.10664763 -0.0149914725
0.067873225 0.05264168 0.0972878 0.025973788 0.12921377 -0.22096477 -0.074004285 0.21529229
-0.13224027 -0.26793775 -0.031650692 0.32578638 -0.16675942 -0.27215162 -0.13593051 -0.37643757
0.1682738 0.22602555 0.14775878 0.09400846 0.29956636 0.253588 0.22038871 -0.16082895
-0.18752271 0.09349496 -0.073583394 0.057632845 -0.24442315 -0.35502103 -0.41966483 -0.040398832
0.11950962 -0.16021375 -0.27866486 -0.25670147 -0.20641693 -0.11642264 -0.35091585 -0.23786734
0.010651979 0.046027876 -0.043039694 -0.018392673 0.113157324 0.13085826 0.0071147447 -0.0615973
-0.24760967 0.18529162 -0.13403293 0.24279805 -0.207551 0.22582363 -0.048689615 -0.011113876
00000000: 595d a1be 7187 1abe 69c7 5c3c d0c3 393e
00000010: 84fe 253d 918b 18bb 136a da3d cb9e 75bc
00000020: 1e01 8b3d cd9e 573d d33e c73d fbc6 d43c
00000030: 9d50 043e 9744 62be 8f8f 97bd 9575 5c3e
00000040: fe69 07be 232f 89be 28a4 01bd 79cd a63e
00000050: fbc2 2abe 7557 8bbe 5e31 0bbe 6dbc c0be
00000060: f84f 2c3e 3e73 673e 144e 173e 8287 c03d
00000070: c360 993e 49d6 813e 94ad 613e 58b0 24be
00000080: f405 40be 497a bf3d e4b2 96bd 6b10 6c3d
00000090: 104a 7abe 51c5 b5be 4fde d6be 3f79 25bd
000000a0: 76c1 f43d 130f 24be 29ad 8ebe 606e 83be
000000b0: f65e 53be fe6e eebd 3eab b3be 7f93 73be
000000c0: a385 2e3c ba87 3c3d 644a 30bd 3bac 96bc
000000d0: 07bf e73d b5ff 053e ce22 e93b 734d 7cbd
000000e0: 648d 7dbe 16bd 3d3e ee3f 09be 0da0 783e
000000f0: 4088 54be 4f3e 673e c36e 47bd f916 36bc

rnn.weight_ih_l1 f4 [64, 64]
0.026554871 -0.18390113 0.34831595 0.16516528 0.14152125 -0.15098557 0.18449856 0.12072464
0.06952766 0.008789532 -0.26181984 -0.093500435 0.20695801 0.013643512 0.31647187 0.09431721
0.43418366 0.0030747561 0.46907642 -0.18139741 -0.014133847 -0.39521092 -0.050647855 0.3016822
0.09979861 -0.13973846 -0.028037451 0.0424134 0.3877187 0.27025327 0.19754343 0.053359337
-0.13549341 0.13518713 0.29350653 -0.3402774 -0.072286166 0.2294069 -0.16480343 0.09592162
0.024090381 0.14456832 -0.14622414 0.014294343 0.21552722 -0.27329293 -0.32535508 0.09059175
-0.0394178 0.18291691 0.24135093 0.057237707 -0.01843927 -0.28622645 -0.2535591 0.06876612
-0.27345726 -0.28835 -0.2112356 0.08861616 -0.07513631 0.105097435 -0.02667357 0.07498107
0.08379208 -0.10903628 0.099917635 -0.12073716 0.046115447 0.18363927 -0.12156574 -0.14240016
-0.104793526 -0.06840002 0.18081182 0.10963269 -0.08691157 0.015000954 -0.27757022 -0.11426529
0.0012746963 0.048822366 -0.14116111 0.17283875 0.26060188 0.09064493 0.13604754 -0.2983362
0.11589322 0.009821824 -0.108125694 0.1966544 -0.36654082 -0.18996364 0.0390456 0.013362885
0.21944115 -0.15227593 -0.22221324 0.085540324 0.0903461 -0.29264766 0.024513347 0.23317546
-0.10858451 -0.09744997 0.16491532 0.043670658 -0.2427485 0.2504687 0.08678131 -0.07385183
-0.06005989 -0.19113654 -0.27786022 -0.34946167 0.05836166 0.19544663 0.45745668 -0.28106937
0.030709872 0.093200296 0.33741635 0.11542115 0.23173375 -0.2115563 -0.046214264 -0.019989913
-0.14905338 -0.041773353 -0.05031025 0.30574828 -0.041808054 -0.060280632 -0.24948604 -0.20830001
0.18153581 0.07874784 0.09290104 0.22579971 0.19559966 0.27333832 -0.119087294 -0.028340084
-0.14708523 0.21529572 -0.37522388 -0.05130273 0.26709834 0.03258165 -0.13831933 -0.30996028
0.30331096 -0.036490224 -0.26755577 -0.037611157 -0.3230684 -0.043048862 0.0060489387 -0.15311976
0.17557767 -0.1495578 -0.30337074 0.18442893 -0.09142785 -0.18388495 0.1908449 0.1562544
-0.06851647 0.122405976 -0.09072708 0.27405736 -0.20362882 0.1723737 0.31291142 -0.37156713
-0.17951861 -0.21933928 -0.07022751 -0.18342218 0.2144277 0.114908956 0.06266174 0.25072208
-0.14315157 0.21610504 0.13608226 0.17051774 0.25114936 0.21935469 0.36462897 -0.043465868
0.2856938 0.110901386 -0.11437592 0.09272702 -0.02944876 -0.12992355 0.16197045 -0.21274658
0.1757312 0.09150713 0.19803458 -0.066487126 0.1971591 0.20106307 0.14744881 -0.13595162
-0.13039185 0.11385135 -0.20150517 -0.07278255 0.16753696 -0.0870966 0.2118837 -0.022925645
0.28624016 0.12031218 -0.117337376 0.12446248 0.03163259 -0.06438127 -0.16690853 -0.008616327
0.02513673 0.048211217 -0.23019902 0.060728658 -0.1104484 -0.25887766 -0.029271249 -0.059309155
0.038790748 0.031179626 0.089648195 0.23709041 -0.32094565 -0.0300739 -0.12199146 0.090855315
0.28034183 -0.22962043 -0.12769566 0.045099597 -0.31636563 0.18981391 0.21600547 0.22118814
0.14919227 0.03571914 0.32809037 -0.18831107 -0.29679695 0.012141898 0.09288006 -0.16536316
00000000: 9a89 d93c 9450 3cbe 7856 b23e 1621 293e
00000010: f2ea 103e f69b 1abe 31ed 3c3e 7b3e f73d
00000020: 8564 8e3d f801 103c 400d 86be 287d bfbd
00000030: cdec 533e 0989 5f3c 9a08 a23e 6229 c13d
00000040: 524d de3e d981 493b c92a f03e 3ec0 39be
00000050: a791 67bc 1659 cabe 2074 4fbd 1776 9a3e
00000060: 3763 cc3d 9917 0fbe ccae e5bc acb9 2d3d
00000070: 1183 c63e a35e 8a3e d348 4a3e 528f 5a3d
00000080: c9be 0abe 7f6e 0a3e 7d46 963e d738 aebe
00000090: c50a 94bd a4e9 6a3e 3bc2 28be 8e72 c43d
000000a0: 3159 c53c b809 143e c8bb 15be d232 6a3c
000000b0: 2bb3 5c3e 0ded 8bbe f194 a6be 2b88 b93d
000000c0: 8f74 21bd 924e 3b3e b324 773e 1672 6a3d
000000d0: f40d 97bc 468c 92be 80d2 81be 40d5 8c3d
000000e0: 9702 8cbe 9ca2 93be 254e 58be 647c b53d
000000f0: 11e1 99bd 533d d73d 8882 dabc ad8f 993d
00000100: 2f9b ab3d 6a4e dfbd 9ea1 cc3d 0b45 f7bd
00000110: 8de3 3c3d ef0b 3c3e 75f7 f8bd 59d1 11be
00000120: fd9d d6bd 4f15 8cbd bc26 393e 1b87 e03d
00000130: b1fe b1bd 90c6 753c af1d 8ebe ec03 eabd
00000140: b613 a73a f6f9 473d 8a8c 10be a4fc 303e
00000150: 9c6d 853e 0da4 b93d 0c50 0b3e 86bf 98be
00000160: 6d59 ed3d b7eb 203c 0171 ddbd c55f 493e
00000170: 3dab bbbe d485 42be 47ee 1f3d 01f0 5a3c
00000180: 2eb5 603e 39ee 1bbe de8b 63be c42f af3d
00000190: 6007 b93d ead5 95be 37d0 c83c 8cc5 6e3e
000001a0: 8e61 debd da93 c7bd 90df 283e 01e0 323d
000001b0: 1093 78be 6f3d 803e 66ba b13d a13f 97bd
000001c0: 5c01 76bd 4cb9 43be b243 8ebe a4ec b2be
000001d0: a30c 6f3d 2923 483e c337 ea3e 53e8 8fbe
000001e0: 4593 fb3c ccdf be3d d6c1 ac3e ed61 ec3d
000001f0: 9d4b 6d3e 37a2 58be 2b4b 3dbd e3c1 a3bc
00000200: 73a1 18be 891a 2bbd 1f12 4ebd 0a8b 9c3e
00000210: ec3e 2bbd d3e8 76bd 4579 7fbe 994c 55be
00000220: 86e4 393e 8c46 a13d e742 be3d 0a38 673e
00000230: 474b 483e 00f3 8b3e 0ae4 f3bd 7729 e8bc
00000240: 839d 16be 7b76 5c3e 581d c0be d022 52bd
00000250: 1dc1 883e 5674 053d 95a3 0dbe 1db3 9ebe
00000260: 934b 9b3e c676 15bd 12fd 88be 280e 1abd
00000270: 3969 a5be 0154 30bd 2d36 c63b 6dcb 1cbe
00000280: a2ca 333e ae25 19be 6953 9bbe f0da 3c3e
00000290: 863e bbbd 564c 3cbe d86c 433e 2701 203e
000002a0: 5d52 8cbd fcaf fa3d 1fcf b9bd 3f51 8c3e
000002b0: 1384 50be bb82 303e ed35 a03e 0c3e bebe
000002c0: bad3 37be 7a9a 60be 71d3 8fbd 06d3 3bbe
000002d0: ef92 5b3e 6355 eb3d cc54 803d a55e 803e
000002e0: 5396 12be a44a 5d3e 2659 0b3e 349c 2e3e
000002f0: a696 803e 849e 603e a6b0 ba3e 4409 32bd
00000300: 7546 923e 4420 e33d ec3d eabd aae7 bd3d
00000310: 873e f1bc ae0a 05be 95db 253e 3dda 59be
00000320: e1f2 333e 1768 bb3d 94c9 4a3e 672a 88bd
00000330: 13e4 493e 7ae3 4d3e d2fc 163e e736 0bbe
00000340: 7185 05be e62a e93d 5f57 4ebe 040f 95bd
00000350: cf8e 2b3e b45f b2bd 0af8 583e 90ce bbbc
00000360: 128e 923e 3b66 f63d 944e f0bd 2fe6 fe3d
00000370: 2d91 013d 54da 83bd 12ea 2abe 7f2b 0dbc
00000380: 8beb cd3c 2079 453d 4bb9 6bbe 9dbe 783d
00000390: c532 e2bd 9d8b 84be 42ca efbc 28ee 72bd
000003a0: 0ce3 1e3d 6a6c ff3c 7999 b73d d4c7 723e
000003b0: fd52 a4be 8a5d f6bc a9d6 f9bd 5a12 ba3d
000003c0: f788 8f3e 9e21 6bbe a7c2 02be 5bba 383d
000003d0: adfa a1be 945e 423e 8a30 5d3e 257f 623e
000003e0: dcc5 183e 3c4e 123d 76fb a73e 9ed4 40be
000003f0: c5f5 97be d0ee 463c e737 be3d f654 29be

rnn.weight_hh_l1 f4 [64, 64]
-0.10213774 -0.0827406 0.24225247 0.07481066 -0.37019235 -0.014229152 0.21296687 0.3468855
-0.2565123 0.10768348 0.12434491 0.20110013 -0.029869823 -0.036430955 -0.13305487 0.067111135
-0.0075650574 0.04042766 -0.014651468 -0.2369977 -0.1871883 -0.09641648 -0.29335907 -0.041844152
0.23307244 -0.25775662 0.030309975 -0.09482835 0.3047523 -0.14825891 -0.05783823 -0.22914053
0.23508035 -0.28041798 0.13978133 0.11721449 -0.14988445 0.008252454 -0.14964229 0.0716296
0.23571645 -0.005919273 -0.096749984 -0.170414 0.29820934 0.095651254 0.115765125 -0.22468853
0.14392447 0.34706306 -0.018390216 -0.17725019 0.20731439 -0.05895117 0.08724683 -0.12890893
-0.18423592 -0.22774239 -0.116855614 0.16497508 -0.17918515 0.17230679 -0.18065776 0.08733072
0.12148277 -0.28840253 -0.15773392 -0.27905667 0.02329386 -0.2028793 -0.14988317 -0.18867648
0.13220978 -0.108401194 -0.24019396 -0.16968946 0.070568666 -0.14465545 0.33582985 0.022489998
0.11342967 0.18920156 0.20303032 0.18761782 0.2117132 -0.038810246 0.15860005 0.35400048
-0.048074517 0.27024296 0.06595349 0.07033453 -0.1476054 0.08799177 -0.19804038 0.33074373
-0.2193699 0.3328711 0.01354557 -0.019032793 0.078280605 0.2221292 0.012012964 0.33789343
-0.35109952 -0.012865107 -0.12611392 0.12665917 -0.29533243 -0.17895654 -0.14633237 0.31939518
-0.17786723 -0.2453544 0.03993958 0.06057004 -0.15530226 0.0028287158 0.06516287 0.14437073
0.02688553 -0.104091495 0.20437504 -0.14494798 -0.14904423 0.093221515 0.11410507 -0.25556058
0.2607691 0.08341419 0.11200391 -0.30115473 0.24927106 -0.27145815 -0.25483483 0.117779195
0.25903744 -0.33870772 -0.24402128 0.06000436 0.20299722 -0.14102206 0.14226007 0.14682133
0.1588204 0.14010252 0.385885 0.05659598 -0.2560763 -0.27711815 0.16067235 0.2229258
-0.19838847 0.284677 0.052203454 0.14972925 0.083579846 0.063123085 0.24006043 0.18293068
-0.40211454 0.36001527 0.2429006 -0.13265239 0.1388526 0.10957759 0.12378162 0.21949121
-0.28286296 0.06622483 -0.21596874 0.1225327 -0.27372938 0.012563549 -0.121683255 -0.15676253
-0.16483653 0.05149651 -0.049210742 0.21229061 -0.18190151 0.008322709 -0.24712512 -0.105645716
-0.014978324 -0.141725 0.16460381 -0.127711 -0.30522066 -0.17327866 0.10254957 -0.16014655
0.23215158 -0.050700255 -0.10569306 -0.25923505 0.44779524 0.017087463 -0.21943304 -0.07090656
0.25845462 -0.23539753 0.013851546 -0.29346797 0.14711016 -0.033928365 0.037391514 -0.30345228
0.084080346 0.06403551 0.17128098 0.10076117 0.16037363 0.049093377 0.030640166 0.081700206
0.004544196 0.27941394 -0.014638427 0.011748469 -0.32722625 0.17439245 -0.04480961 0.38203767
-0.18903975 0.37532896 -0.12204931 -0.122371264 0.2856812 0.14197527 0.10557029 -0.15190783
-0.18765314 -0.05880832 -0.17953192 -0.048893444 -0.199661 -0.08339288 -0.17085665 -0.055120125
0.025006594 -0.032132357 0.15580072 0.19825377 -0.28950486 -0.1721445 -0.00025412507 0.24748212
-0.002681556 0.1958331 0.38191405 -0.1741792 0.087204576 -0.21136652 0.1367708 -0.045880225
00000000: 972d d1bd e773 a9bd 0811 783e 5536 993d
00000010: da89 bdbe 6421 69bc fd13 5a3e fa9a b13e
00000020: 9555 83be 2889 dc3d 8ba8 fe3d 31ed 4d3e
00000030: 8fb1 f4bc a038 15bd 893f 08be 9071 893d
00000040: 4de4 f7bb 7997 253d b60c 70bc 86af 72be
00000050: 4aae 3fbe 0176 c5bd 2933 96be c664 2bbd
00000060: 8baa 6e3e adf8 83be a04c f83c 5e35 c2bd
00000070: 7e08 9c3e 2fd1 17be c8e7 6cbd d1a3 6abe
00000080: e7b8 703e f292 8fbe d622 0f3e 270e f03d
00000090: 4f7b 19be 4d35 073c d43b 19be 8ab2 923d
000000a0: a75f 713e 76f6 c1bb db24 c6bd 0281 2ebe
000000b0: e5ae 983e cee4 c33d 4416 ed3d c014 66be
000000c0: f060 133e 40b2 b13e 14a7 96bc 1381 35be
000000d0: 394a 543e c876 71bd 77ae b23d b400 04be
000000e0: 57a8 3cbe 4d35 69be ff51 efbd 3aef 283e
000000f0: 507c 37be 3171 303e 59fe 38be 73da b23d
00000100: f5cb f83d 7fa9 93be 0085 21be 84e0 8ebe
00000110: c4d2 be3c 97bf 4fbe f97a 19be 6834 41be
00000120: 0062 073e 7201 debd 68f5 75be 13c3 2dbe
00000130: 4e86 903d 8f20 14be e4f1 ab3e f23c b83c
00000140: d14d e83d 0ebe 413e 2ee7 4f3e e31e 403e
00000150: 58cb 583e 7ef7 1ebd 0d68 223e 8d3f b53e
00000160: c9e9 44bd 495d 8a3e a012 873d 8d0b 903d
00000170: df25 17be 0735 b43d 19cb 4abe 3e57 a93e
00000180: 81a2 60be 156e aa3e 3dee 5d3c a9ea 9bbc
00000190: 9551 a03d d675 633e 06d2 443c 5e00 ad3e
000001a0: 51c3 b3be 2bc8 52bc 0224 01be f1b2 013e
000001b0: d035 97be 6240 37be 27d8 15be c487 a33e
000001c0: d422 36be 2f3e 7bbe af97 233d 4a18 783d
000001d0: 8e07 1fbe fa61 393b 1c74 853d ecd5 133e
000001e0: 0b3f dc3c ec2d d5bd b147 513e 3e6d 14be
000001f0: 0d9f 18be ecea be3d ebaf e93d d6d8 82be
00000200: 8783 853e 0fd5 aa3d 4e62 e53d f430 9abe
00000210: ea40 7f3e 90fc 8abe b679 82be 3836 f13d
00000220: 8ea0 843e 196b adbe b7e0 79be 22c7 753d
00000230: 81de 4f3e 1668 10be a0ac 113e 5558 163e
00000240: d1a1 223e 0977 0f3e b892 c53e 30d1 673d
00000250: 6f1c 83be 6ee2 8dbe 4b87 243e a946 643e
00000260: 5926 4bbe 2fc1 913e 4ad3 553d a052 193e
00000270: e92b ab3d ad46 813d 67d2 753e 2e52 3b3e
00000280: f5e1 cdbe ec53 b83e efba 783e 07d6 07be
00000290: 602f 0e3e 376a e03d 3881 fd3d 4ec2 603e
000002a0: 6ad3 90be e2a0 873d e926 5dbe 6df2 fa3d
000002b0: 4226 8cbe 58d7 4d3c 1235 f9bd 5b86 20be
000002c0: e8ca 28be 01ee 523d 3491 49bd b662 593e
000002d0: 6444 3abe f95b 083c 5e0e 7dbe c85c d8bd
000002e0: a567 75bc 5c20 11be e78d 283e acc6 02be
000002f0: e245 9cbe f66f 31be 8205 d23d 75fd 23be
00000300: 25b9 6d3e 12ab 4fbd 9a75 d8bd 75ba 84be
00000310: 6b45 e53e 02fb 8b3c 0eb3 60be 7537 91bd
00000320: 2a54 843e 0d0c 71be 98f1 623c 6f41 96be
00000330: 0ca4 163e 78f8 0abd d827 193d 195e 9bbe
00000340: 5132 ac3d 0d25 833d 4864 2f3e df5b ce3d
00000350: fc38 243e 2316 493d 1601 fb3c 7052 a73d
00000360: 7be7 943b 580f 8f3e 03d6 6fbc a77c 403c
00000370: 338a a7be ef93 323e 488a 37bd 719a c33e
00000380: a393 41be 1e2b c03e fdf4 f9bd c99d fabd
00000390: ce44 923e f761 113e 3c35 d83d ba8d 1bbe
000003a0: 2528 40be fee0 70bd 37d7 37be 7e44 48bd
000003b0: ef73 4cbe e3c9 aabd 0cf5 2ebe a4c5 61bd
000003c0: a1da cc3c 389d 03bd 398a 1f3e 0903 4b3e
000003d0: fb39 94be a646 30be 173c 85b9 f46b 7d3e
000003e0: 0bbd 2fbb 7988 483e 3d8a c33e 085c 32be
000003f0: 5098 b23d 7770 58be a50d 0c3e e7ec 3bbd

rnn.bias_ih_l1 f4 [64]
0.102089554 -0.048121866 0.22044292 -0.24252543 -0.17892872 0.12423778 0.31764823 0.10807695
0.105177276 0.21081705 -0.15377967 0.22647978 0.090391666 0.14819907 0.17595589 0.48604643
0.30635953 -0.047874246 0.15566333 0.31779015 -0.14687195 -0.23493856 -0.21832699 0.23738621
-0.15295197 -0.19230984 -0.2234684 -0.13933387 0.18112375 0.0925847 0.22504742 0.13563964
-0.24038352 -0.25407493 0.40599337 -0.050009638 0.20564568 -0.07366434 -0.19596717 -0.11485586
-0.17646533 -0.21540904 0.012463211 -0.19155541 0.17119554 0.04164266 -0.045468226 -0.23378047
0.04416093 0.20154111 -0.36725938 0.014897752 0.08746897 -0.13305867 0.2313717 -0.13864413
0.077702425 -0.0063255294 0.06692716 -0.10624467 -0.3090767 -0.11015939 -0.16577382 -0.013115628
00000000: 5414 d13d 6f1b 45bd cabb 613e 9658 78be
00000010: 1739 37be 6170 fe3d caa2 a23e 7357 dd3d
00000020: 2f67 d73d 6de0 573e 6b78 1dbe 51ea 673e
00000030: 441f b93d 7fc1 173e c82d 343e 14db f83e
00000040: 28db 9c3e c917 44bd 3566 1f3e 64b5 a23e
00000050: 9a65 16be bc93 70be 1c91 5fbe 5f15 733e
00000060: 719f 1cbe dfec 44be e6d4 64be 8aad 0ebe
00000070: 8178 393e 0c9d bd3d d572 663e 1ee5 0a3e
00000080: 1927 76be 1c16 82be 5dde cf3e e8d6 4cbd
00000090: c894 523e 54dd 96bd 9eab 48be 8d39 ebbd
000000a0: 54b3 34be 3094 5cbe 7f32 4c3c 1a27 44be
000000b0: e24d 2f3e 7e91 2a3d e43c 3abd 2664 6fbe
000000c0: 17e2 343d cb60 4e3e 6c09 bcbe b315 743c
000000d0: ee22 b33d 8840 08be b4ec 6c3e baf8 0dbe
000000e0: 7322 9f3d 6346 cfbb 1b11 893d ce96 d9bd
000000f0: 4d3f 9ebe 3f9b e1bd 9dc0 29be eee2 56bc

rnn.bias_hh_l1 f4 [64]
0.15080816 -0.011571818 0.27172264 -0.35145965 -0.12593882 -0.1027022 0.4318092 0.15971017
0.069239974 0.27237347 -0.20609763 0.27448222 -0.06749738 0.24670774 0.013854667 0.37791008
0.25443476 0.012791854 0.08395069 0.17177503 -0.07172423 -0.09487325 -0.17487092 0.19940056
-0.105510116 -0.24212526 -0.15304814 -0.17285939 0.03353261 0.14935856 0.02446142 0.13255873
-0.2177265 -0.24201995 0.1835609 -0.09363276 0.17009161 -0.111519195 -0.19463806 -0.06860907
0.037590154 -0.16574053 0.049896855 -0.03507708 0.27082506 -0.05878873 -0.23468636 -0.13456473
0.04274025 0.22317342 -0.34324157 -0.122746035 0.034385078 -0.11731625 0.21294522 -0.1133902
0.027323952 -0.09876245 0.10554222 -0.0817528 -0.13977131 -0.16039246 -0.17940953 0.17182417
00000000: 746d 1a3e b997 3dbc 3b1f 8b3e 85f2 b3be
00000010: 1bf6 00be 8855 d2bd 1816 dd3e 108b 233e
00000020: b0cd 8d3d 8974 8b3e 420b 53be ef88 8c3e
00000030: 113c 8abd f4a0 7c3e affe 623c 6e7d c13e
00000040: 4645 823e ed94 513c 57ee ab3d cbe5 2f3e
00000050: 27e4 92bd e84c c2bd 5d11 33be a92f 4c3e
00000060: b015 d8bd afef 77be a7b8 1cbe 0d02 31be
00000070: 7d59 093d 73f1 183e 5163 c83c 7abd 073e
00000080: b2f3 5ebe 14d4 77be 63f7 3b3e 88c2 bfbd
00000090: 7f2c 2e3e 2d64 e4bd 334f 47be e982 8cbd
000000a0: 22f8 193d e3b7 29be a560 4c3d fcac 0fbd
000000b0: 95a9 8a3e 74cc 70bd 9f51 70be 56cb 09be
000000c0: 6610 2f3d 9387 643e 5cbd afbe 4662 fbbd
000000d0: 5ed7 0c3d 8143 f0bd 500e 5a3e 1f39 e8bd
000000e0: 7bd6 df3c f843 cabd 8526 d83d 036e a7bd
000000f0: 3620 0fbe ec3d 24be 22b7 37be adf2 2f3e

rnn.weight_ih_l2 f4 [64, 64]
0.25417343 -0.051271826 -0.1905817 0.08168565 -0.2841448 0.1588677 -0.10304868 0.110918544
-0.04172021 0.24354929 -0.06422472 0.13857508 0.14600351 -0.10645457 -0.11624021 -0.06107664
0.1350771 0.068099156 0.05540133 -0.08646619 -0.04829626 0.23789664 0.14008926 -0.019985598
-0.22602814 0.056892477 0.22945942 0.1182646 0.12541358 0.24185804 -0.053537484 -0.08097664
0.09209161 -0.017372457 -0.096384786 -0.14431447 0.25452948 0.14300503 0.070043385 -0.041881237
-0.13716266 -0.15027727 0.08535699 0.010025857 -0.22496545 -0.13099557 0.030975457 -0.13875607
-0.14972535 -0.028921207 0.18893808 0.012974293 -0.07218732 -0.26195773 0.07487723 -0.052056704
0.17330168 0.12166852 -0.0003975604 -0.029240668 0.09600346 -0.11242513 0.2911107 -0.05200653
0.5290602 -0.11042759 -0.54503226 -0.121282026 -0.18772262 -0.14166792 -0.47421718 -0.4583111
-0.065866195 -0.2208622 -0.31954238 -0.15577132 0.44204554 -0.04352651 0.01589492 0.086567566
-0.019299718 0.047452144 -0.119132504 -0.011313166 -0.12449026 0.21907167 0.5166879 0.10543868
-0.3625281 0.40338412 0.2218038 0.483419 0.1905831 0.25405222 -0.172922 0.012617257
0.04146702 0.22507785 0.112464614 -0.29326496 0.20998517 -0.009486636 -0.07011629 0.13135102
-0.43184426 -0.36889508 0.119048625 0.03374961 -0.54774755 0.28254104 -0.32574442 0.17259075
-0.076648474 -0.53437746 0.0069529824 -0.03898695 -0.31019163 -0.40531456 0.23289709 0.25419936
0.2809221 0.15592259 -0.08459255 0.057681777 -0.3272712 0.08121816 0.4209893 -0.16002482
-0.33209324 0.05708555 -0.046756 0.032119848 0.1473427 -0.081502736 0.1776525 0.054105893
-0.124040194 0.018814601 0.031211745 -0.022256512 -0.04772696 0.13273405 -0.066728264 -0.038293764
0.1923869 0.14784652 0.2047805 -0.22861445 -0.0946156 0.10693209 -0.15037347 0.017190311
0.094918504 -0.034901764 -0.13771285 0.048791535 -0.041342445 -0.06762628 0.10655088 -0.048317093
0.0785587 -0.011353105 0.033564195 0.081872895 0.024769407 0.041696154 -0.15738116 -0.09073294
0.2445632 0.14502104 0.025397267 -0.18804051 0.14945619 0.012870479 0.12929356 -0.012346681
0.11039436 0.10603857 -0.011883311 -0.18228969 -0.119562335 0.0963868 0.044031486 -0.07769744
-0.1633084 0.004427751 -0.08252644 0.06346247 0.01260811 -0.17451939 -0.15873419 0.06651997
0.24659587 -0.19311322 -0.07218459 -0.06698158 -0.23833156 -0.02890486 -0.12516698 0.12924428
-0.13010092 -0.14433897 -0.042547565 -0.021077432 0.17489438 -0.1835619 -0.1713547 -0.21784592
-0.09445789 0.05576051 -0.024366565 0.13300145 -0.048400294 0.04328724 0.18842024 -0.05457544
-0.041930083 0.17703128 0.10819109 0.18740627 0.1014182 0.20315935 -0.060181756 -0.19489996
0.042603057 -0.14895646 -0.028292675 -0.12560335 0.12961344 -0.032091 0.050482083 -0.03086409
-0.22807036 -0.00012934307 0.08569301 0.22264253 -0.10980709 -0.16224194 -0.242603 -0.09167832
-0.046049446 -0.13558172 0.010011513 0.07318371 -0.025114529 -0.027075024 0.15854865 -0.022027994
0.2424336 0.098848596 -0.07485367 0.0057716463 -0.12831536 0.0037738555 0.026006939 0.011794572
00000000: 0523 823e 6802 52bd d927 43be ce4a a73d
00000010: 6d7b 91be 37ae 223e 300b d3bd 4329 e33d
00000020: d0e2 2abd fc64 793e 4088 83bd a0e6 0d3e
00000030: f281 153e db04 dabd 590f eebd 802b 7abd
00000040: a751 0a3e 9277 8b3d 81ec 623d 3015 b1bd
00000050: 4dd2 45bd 2d9b 733e 8f73 0f3e d6b8 a3bc
00000060: ec73 67be 1608 693d 69f7 6a3e b634 f23d
00000070: 6b6c 003e a2a9 773e 1f4a 5bbd 15d7 a5bd
00000080: 879a bc3d af50 8ebc 6365 c5bd 2cc7 13be
00000090: b051 823e e96f 123e e872 8f3d a98b 2bbd
000000a0: 5e74 0cbe 49e2 19be a5cf ae3d 7e43 243c
000000b0: 585d 66be b423 06be 3ec0 fd3c 1216 0ebe
000000c0: 9a51 19be 2bec ecbc fc78 413e 2192 543c
000000d0: f2d6 93bd 531f 86be 3c59 993d 6939 55bd
000000e0: ff75 313e 582d f93d a76f d0b9 208a efbc
000000f0: 769d c43d 263f e6bd 760c 953e cd04 55bd
00000100: 7d70 073f dc27 e2bd 3c87 0bbf b662 f8bd
00000110: 5c3a 40be 6511 11be 98cc f2be c1a7 eabe
00000120: dbe4 86bd b329 62be 0f9b a3be 8482 1fbe
00000130: cb53 e23e db48 32bd 1036 823c 564a b13d
00000140: 711a 9ebc 2e5d 423d befb f3bd db5a 39bc
00000150: c0f4 febd 5354 603e a945 043f 3cf0 d73d
00000160: 489d b9be 5d88 ce3e 8920 633e b282 f73e
00000170: 3728 433e 2213 823e 7712 31be 9db8 4e3c
00000180: 52d9 293d cf7a 663e d953 e63d d326 96be
00000190: 5a06 573e d66d 1bbc 2199 8fbd e280 063e
000001a0: b11a ddbe d1df bcbe c4cf f33d 083d 0a3d
000001b0: 2f39 0cbf 38a9 903e f9c7 a6be a1bb 303e
000001c0: e0f9 9cbd f6cc 08bf d8d5 e33b c8b0 1fbd
000001d0: 70d1 9ebe 6485 cfbe 937c 6e3e 6b26 823e
000001e0: 06d5 8f3e 2caa 1f3e dc3e adbd ba43 6c3d
000001f0: 1790 a7be b555 a63d e98b d73e 8cdd 23be
00000200: 2008 aabe 8ad2 693d 3883 3fbd 1a90 033d
00000210: 01e1 163e e8ea a6bd 89ea 353e 249e 5d3d
00000220: c908 febd 1421 9a3c c6af ff3c 4a53 b6bc
00000230: 587d 43bd 6feb 073e d4a8 88bd ecd9 1cbd
00000240: 1201 453e 1465 173e fbb1 513e e819 6abe
00000250: d3c5 c1bd 36ff da3d 81fb 19be b2d2 8c3c
00000260: a264 c23d 27f5 0ebd 9904 0dbe a2d9 473d
00000270: b256 29bd a67f 8abd 5937 da3d 25e8 45bd
00000280: 62e3 a03d 6002 3abc 9c7a 093d faac a73d
00000290: 36e9 ca3c 96c9 2a3d 8728 21be 31d2 b9bd
000002a0: c76e 7a3e 6580 143e ee0d d03c b18d 40be
000002b0: 0b0b 193e b4de 523c 8865 043e bc49 4abc
000002c0: 7016 e23d c02a d93d 38b2 42bc 26aa 3abe
000002d0: 19dd f4bd 7166 c53d 5c5a 343d d61f 9fbd
000002e0: 513a 27be ab16 913b 9f03 a9bd 9df8 813d
000002f0: 3f92 4e3c 36b5 32be 378b 22be 9f3b 883d
00000300: a183 7c3e 79bf 45be 84d5 93bd a32d 89bd
00000310: 300d 74be e3c9 ecbc c62b 00be 9d58 043e
00000320: 2d39 05be 98cd 13be 5b46 2ebd 94aa acbc
00000330: 8317 333e a7f7 3bbe 9b77 2fbe 0013 5fbe
00000340: 2373 c1bd 2265 643d 649c c7bc 8831 083e
00000350: 633f 46bd f64d 313d 3cf1 403e 7f8a 5fbd
00000360: e1be 2bbd b047 353e 4a93 dd3d 6ee7 3f3e
00000370: 58b4 cf3d 0109 503e 2581 76bd db93 47be
00000380: 8b80 2e3d 0b88 18be 0ac6 e7bc 2a9e 00be
00000390: 63b9 043e da71 03bd 4dc6 4e3d b0d6 fcbc
000003a0: 478b 69be 44a0 07b9 d17f af3d 67fc 633e
000003b0: 8ae2 e0bd c022 26be ec6c 78be d8c1 bbbd
000003c0: 589e 3cbd efd5 0abe 5407 243c 57e1 953d
000003d0: fcbc cdbc 71cc ddbc 945a 223e 0d74 b4bc
000003e0: 8340 783e 2271 ca3d e24c 99bd 1420 bd3b
000003f0: 1a65 03be ca52 773b 810c d53c 053e 413c

rnn.weight_hh_l2 f4 [64, 64]
0.10724681 -0.16180354 0.018922452 -0.15781462 0.055217054 -0.16807754 -0.09461139 -0.109059095
-0.039151903 -0.20076713 -0.045755975 0.31010124 -0.10235671 0.28038335 -0.12829813 0.080301546
-0.04451537 0.10938541 -0.3109366 -0.27572492 -0.06409415 -0.2737341 0.21380652 0.26232937
-0.061712835 -0.33485886 0.25733408 0.08501022 0.27349398 0.22880372 0.24772318 -0.17274085
-0.016259197 0.04299927 -0.1977582 0.03120361 -0.037971586 -0.045299698 0.10119698 -0.046732277
0.12725537 0.03585851 0.0022260726 -0.20051163 0.18982698 -0.039936177 0.19283952 -0.11073666
0.16702306 -0.15986505 0.219891 -0.21139896 -0.22507575 0.024402324 0.09507063 -0.19986154
-0.10224724 -0.2729968 -0.3455709 -0.1867518 -0.12527463 -0.060453374 -0.038855694 0.23234217
0.060042903 0.08154559 0.10921397 -0.29544303 -0.12814224 -0.054357886 0.09373313 0.12914115
-0.3693143 -0.11467904 -0.16644727 -0.38161135 -0.2834983 -0.19824508 0.18565159 -0.0005552385
0.06460014 0.22384259 -0.1726172 -0.15556292 -0.1792796 -0.049215425 -0.24103595 0.014045222
-0.33132192 -0.06763438 0.15171148 0.032642372 -0.23013319 0.21389396 0.2341623 -0.01609844
-0.23843452 -0.02347595 -0.3983456 0.016833313 -0.28275093 0.27627736 0.23043235 0.14458317
0.034558605 -0.08751902 -0.22526251 -0.1903058 0.13019608 0.2926719 0.14344177 -0.053208392
0.123115376 0.15673672 -0.040172536 0.09354634 -0.30200976 -0.17600873 0.15066728 -0.0541833
-0.100044504 -0.023002729 -0.0071120127 -0.05243739 -0.1744882 0.20491003 -0.20735896 0.017183427
0.025208939 -0.06642762 -0.19233079 0.15108436 0.24325453 -0.25034344 -0.11196192 0.018295452
0.11291993 0.081882335 0.20848574 0.17179126 0.38202304 0.1932253 -0.15072785 0.11943846
0.23852277 -0.2259951 0.28853247 -0.01159834 0.12531438 0.21029058 0.22596073 0.082872786
0.07011863 -0.18675198 -0.17462981 0.20456253 0.019789565 -0.11161949 -0.2160912 -0.16446559
0.31460574 0.1708079 -0.15465134 -0.006699444 0.28426155 -0.08413021 -0.13233644 -0.062213767
-0.06980927 0.13559735 -0.08412657 -0.047555204 -0.04300775 0.068704754 -0.30944905 0.23278677
0.16491921 -0.03744369 0.32014447 -0.3420268 0.001323469 0.099780895 -0.12917387 -0.1609326
0.25020772 0.033414945 0.13342147 0.051135868 0.14551137 0.033609662 0.17872171 -0.13843405
-0.11065454 0.0031086262 0.20596121 -0.04399253 -0.23549405 0.18833584 0.064059936 0.12518433
-0.1322457 -0.041783586 -0.06653722 0.17702022 -0.32366773 -0.2722305 -0.04005559 -0.035940185
0.012143493 0.14170836 -0.14447157 -0.093768895 -0.16718279 -0.087697566 -0.16606979 0.26166645
0.027334465 -0.023212655 0.058547027 -0.27824593 0.2567757 0.1333454 0.13649908 0.12386604
-0.11594171 0.057019517 0.27930874 0.1956891 -0.2006177 0.10654929 0.26427177 0.0101940995
-0.14991613 -0.08982755 -0.1576824 0.030358246 0.22172509 -0.19019993 0.2434024 -0.25243625
-0.17939307 -0.2774515 -0.10148674 0.30728737 -0.037669078 -0.025090938 0.0058620204 0.17451285
-0.22973928 -0.19830345 -0.3314838 -0.04401246 -0.083478026 -0.10601642 -0.13675675 0.13375004
00000000: 37a4 db3d d4af 25be 4203 9b3c 289a 21be
00000010: 472b 623d 851c 2cbe 9ec3 c1bd 605a dfbd
00000020: bf5d 20bd e695 4dbe 9e6a 3bbd 97c5 9e3e
00000030: 65a0 d1bd 688e 8f3e 9660 03be 2375 a43d
00000040: c055 36bd 7505 e03d 1533 9fbe d12b 8dbe
00000050: cb43 83bd e026 8cbe 19f0 5a3e 0950 863e
00000060: 99c6 7cbd 9f72 abbe 4bc1 833e d719 ae3d
00000070: 6707 8c3e 864b 6a3e 25ab 7d3e fae2 30be
00000080: 0232 85bc 0120 303d 2081 4abe b79e ff3c
00000090: 1888 1bbd 2d8c 39bd 5d40 cf3d 586a 3fbd
000000a0: 3b4f 023e 5fe0 123d 4de3 113b ec52 4dbe
000000b0: 0162 423e 1e94 23bd b977 453e e7c9 e2bd
000000c0: 1808 2b3e aab3 23be 1b2b 613e f878 58be
000000d0: 427a 66be 62e7 c73c 64b4 c23d 81a8 4cbe
000000e0: 0067 d1bd 3dc6 8bbe abee b0be dd3b 3fbe
000000f0: fe47 00be f59d 77bd 2627 1fbd 1beb 6d3e
00000100: 8cef 753d 6001 a73d 93ab df3d 4f44 97be
00000110: b837 03be 60a6 5ebd 28f7 bf3d 943d 043e
00000120: c416 bdbe d8dc eabd 2771 2abe 9062 c3be
00000130: b026 91be c200 4bbe 731b 3e3e 6d8d 11ba
00000140: 144d 843d fe36 653e 90c2 30be e34b 1fbe
00000150: 1295 37be 1d96 49bd 21d2 76be ee1d 663c
00000160: 07a3 a9be e583 8abd 415a 1b3e 02b4 053d
00000170: 09a8 6bbe 0507 5b3e 3ec8 6f3e e0e0 83bc
00000180: 2e28 74be a350 c0bc f4f3 cbbe 04e6 893c
00000190: bbc4 90be 3a74 8d3e 75f6 6b3e 9c0d 143e
000001a0: 538d 0d3d 2c3d b3bd 37ab 66be 86df 42be
000001b0: 1f52 053e 17d9 953e 66e2 123e 0bf1 59bd
000001c0: ea23 fc3d 977f 203e f58b 24bd 3995 bf3d
000001d0: 06a1 9abe a23b 34be 8648 1a3e 4fef 5dbd
000001e0: 22e4 ccbd 3870 bcbc e30b e9bb 97c8 56bd
000001f0: 09ad 32be efd3 513e e855 54be 42c4 8c3c
00000200: fa82 ce3c 340b 88bd 5df2 44be dcb5 1a3e
00000210: b717 793e 042d 80be 4b4c e5bd 58e0 953c
00000220: 9042 e73d edb1 a73d 497d 553e 0cea 2f3e
00000230: 8698 c33e dadc 453e 6758 1abe 279c f43d
00000240: 503f 743e 426b 67be 87ba 933e f706 3ebc
00000250: 6a52 003e 6a56 573e 4062 673e 35b9 a93d
00000260: 5b9a 8f3d e93b 3fbe 28d2 32be d778 513e
00000270: ba1d a23c c298 e4bd 0347 5dbe ab69 28be
00000280: 0114 a13e 44e8 2e3e ec5c 1ebe 0287 dbbb
00000290: bb8a 913e 764c acbd 3483 07be ddd3 7ebd
000002a0: 2af8 8ebd 08da 0a3e 8d4a acbd 3fc9 42bd
000002b0: e528 30bd 14b5 8c3d 1b70 9ebe a85f 6e3e
000002c0: 95e0 283e 8e5e 19bd fae9 a33e 231e afbe
000002d0: 4078 ad3a ed59 cc3d 2846 04be 84cb 24be
000002e0: 3a1b 803e 1cde 083d a39f 083e d873 513d
000002f0: ef00 153e 49aa 093d d302 373e a8c1 0dbe
00000300: d99e e2bd 18ba 4b3b 7fe7 523e 8331 34bd
00000310: 5a25 71be 1cdb 403e db31 833d 5230 003e
00000320: 6b6b 07be 4425 2bbd aa44 88bd ca44 353e
00000330: c7b7 a5be cc61 8bbe 5511 24bd 0436 13bd
00000340: 80f5 463c ff1b 113e 5bf0 13be e809 c0bd
00000350: f731 2bbe c89a b3bd 330e 2abe 25f9 853e
00000360: 87ec df3c 7728 bebc 02cf 6f3d 4076 8ebe
00000370: 1b78 833e b28b 083e 6ac6 0b3e 7aad fd3d
00000380: d972 edbd 4c8d 693d 8e01 8f3e b962 483e
00000390: ba6e 4dbe 8436 da3d a14e 873e 2705 273c
000003a0: 9d83 19be 82f7 b7bd 7f77 21be dbb1 f83c
000003b0: e70b 633e c5c3 42be 7b3e 793e 533f 81be
000003c0: d1b2 37be 1f0e 8ebe 48d8 cfbd c554 9d3e
000003d0: e44a 1abd 838b cdbc 3116 c03b 7fb3 323e
000003e0: c640 6bbe 0f10 4bbe 3fb8 a9be 6946 34bd
000003f0: 87f6 aabd 231f d9bd f609 0cbe c5f5 083e

rnn.bias_ih_l2 f4 [64]
0.11817249 -0.009189857 -0.16312508 0.033002052 0.33428562 -0.33834112 -0.04056082 -0.06728381
0.012745588 0.030486012 0.09761237 -0.29760468 0.25242445 0.35413224 0.24116631 -0.037433702
-0.41099456 -0.12739871 0.21277265 0.22278175 0.2528143 0.05223333 0.1954542 0.08288209
0.14327167 0.21449953 -0.1662711 0.27977157 -0.12944907 -0.2591167 -0.29762104 -0.31199843
0.23865996 -0.020266725 -0.29877645 -0.2041046 -0.28574276 -0.0011097549 -0.2173157 0.10368732
0.03821621 -0.028149972 -0.3102163 -0.18347193 0.27774337 0.240122 0.07743337 0.15050653
0.32266092 -0.27340615 0.15102679 -0.11258979 0.062751606 0.41677365 0.015108643 -0.3125527
0.3395681 -0.042770967 -0.09114653 0.11572546 0.08090993 -0.06611945 -0.08339071 0.25846604
00000000: 6b04 f23d 0e91 16bc 430a 27be 292d 073d
00000010: 7c27 ab3e 0c3b adbe 1a23 26bd 18cc 89bd
00000020: dfd2 503c cdbd f93c ffe8 c73d a45f 98be
00000030: c73d 813e d250 b53e 4df4 763e 1554 19bd
00000040: e16d d2be cf74 02be 13e1 593e e620 643e
00000050: e070 813e 9ef2 553d 2525 483e 16be a93d
00000060: cfb5 123e c4a5 5b3e f942 2abe 383e 8f3e
00000070: 4c8e 04be f2aa 84be c961 98be 42be 9fbe
00000080: 4763 743e 6706 a6bc 3af9 98be cc00 51be
00000090: e04c 92be 3275 91ba 0288 5ebe 055a d43d
000000a0: 9a88 1c3d c59a e6bc acd4 9ebe 11e0 3bbe
000000b0: 6134 8e3e 8be2 753e 6395 9e3d 621e 1a3e
000000c0: d033 a53e e4fb 8bbe c4a6 1a3e 7a95 e6bd
000000d0: ea83 803d 5b63 d53e 3e8a 773c e806 a0be
000000e0: dfdb ad3e 9c30 2fbd 08ab babd 7801 ed3d
000000f0: 1bb4 a53d a269 87bd c0c8 aabd a955 843e

rnn.bias_hh_l2 f4 [64]
0.1914009 0.014351683 -0.11617594 0.13953635 0.4172975 -0.24805278 0.01852792 -0.10054635
0.12501654 0.068267055 0.16574273 -0.49990857 0.3170673 0.21065475 0.15235947 -0.13376021
-0.40659106 -0.1512499 0.19109492 0.1665835 0.21910433 0.20152266 -0.01762303 0.08446882
0.18163954 0.1718799 -0.253196 0.44447654 -0.19496155 -0.29165867 -0.123223945 -0.25813788
0.15086298 0.056067336 -0.18209295 -0.29721278 -0.09797626 -0.056704912 -0.18537466 0.1716223
0.041295253 -0.15810247 -0.17975064 -0.40183115 0.2498131 0.20212176 -0.060662095 0.32652137
0.31733888 -0.079828404 0.22225258 -0.2606987 0.09751293 0.18754691 -0.11979864 -0.27608153
0.27339423 0.06082445 -0.121111184 0.23258384 -0.0116757965 -0.06003216 -0.044786353 0.1918414
00000000: 99fe 433e 5223 6b3c a7ed edbd 9ee2 0e3e
00000010: 05a8 d53e 8c01 7ebe ddc7 973c 3feb cdbd
00000020: 5604 003e 99cf 8b3d 76b8 293e 04f4 ffbe
00000030: a556 a23e e1b5 573e 1f04 1c3e 70f8 08be
00000040: b42c d0be 41e1 1abe 63ae 433e dd94 2a3e
00000050: e35c 603e f55b 4e3e 2c5e 90bc fdfd ac3d
00000060: b7ff 393e 4901 303e e8a2 81be 6e92 e33e
00000070: 00a4 47be 4954 95be d65c fcbd a62a 84be
00000080: d37b 1a3e dda6 653d 9376 3abe 462c 98be
00000090: c7a7 c8bd 6943 68bd dbd2 3dbe c2bd 2f3e
000000a0: 3625 293d 9de5 21be 8d10 38be d0bc cdbe
000000b0: 01cf 7f3e 02f9 4e3e d178 78bd cf2d a73e
000000c0: 3e7a a23e 137d a3bd 2e96 633e 4d7a 85be
000000d0: dcb4 c73d 4c0c 403e fd58 f5bd 8f5a 8dbe
000000e0: 54fa 8b3e 0f23 793d 2409 f8bd 752a 6e3e
000000f0: d74b 3fbc 48e4 75bd e571 37bd 1272 443e
