models/trained_model.pt (torch, 542398 bytes, 61 tensors)

rnn.weight_ih_l0 f4 [64, 202]
0	0x3b702600	0.0036643744
1	0x3dde1486	0.10843758
2	0x3de5eee0	0.112272024
3	0x3d0af73c	0.033927187
4	0xbd5746d4	-0.05255778
5	0xbd321636	-0.043478213
6	0x3dcbbe78	0.099484384
7	0xbd6c1cd1	-0.05764467
8	0x3d1783cf	0.036990937
9	0xbdc41274	-0.09573832
10	0x3e99f508	0.30069757
11	0x3dde3c48	0.108513415
12	0x3d6111dc	0.054948673
13	0xbe977aa7	-0.29585764
14	0x3e9a18cc	0.30097044
15	0x3e8f9cbe	0.28049272
16	0xbe13a6de	-0.14419124
17	0xbd8f2a4b	-0.069904886
18	0x3e06f898	0.13180768
19	0xbe8c8062	-0.27441698
20	0x3df8770c	0.121320814
21	0xbdc8dcda	-0.09807749
22	0xbd206f3e	-0.03916859
23	0xbde2ac13	-0.11067977
24	0xbd76ea00	-0.060281754
25	0x3d23f5e0	0.040029407
26	0x3ea890e2	0.32923037
27	0x3ea98936	0.33112496
28	0x3e577eff	0.21044539
29	0x3ed80648	0.42192292
30	0x3ef69cc8	0.4816649
31	0x3eec0ef1	0.4610515
32	0x3db4dab8	0.0883078
33	0x3ef8091e	0.48444456
34	0x3de3979b	0.11112901
35	0x3eb61baf	0.35567996
36	0x3ed29802	0.41131598
37	0x3ea9b7c3	0.33148012
38	0x3e8fd36c	0.2809099
39	0x3e9a9c9d	0.3019761
40	0x3e1ba42b	0.15199344
41	0x3eb2b5af	0.3490424
42	0x3d201f61	0.039092425
43	0x3e995923	0.29950818
44	0x3d4476a4	0.047964707
45	0xbdabf2cf	-0.083959214
46	0xbd6e8e24	-0.058241025
47	0xbdad7ca9	-0.08471043
48	0xbed2561e	-0.41081327
49	0xbd4b137c	-0.04957913
50	0x3e4c76ca	0.1996719
51	0x3e2a6744	0.16640955
52	0x3d09ded3	0.033659767
53	0x3c34c3ed	0.0110330405
54	0x3b878904	0.0041362066
55	0x3e52fb17	0.20603596
56	0xbea13f8d	-0.31493798
57	0x3e5f3396	0.21797022
58	0xbe84bc92	-0.25925118
59	0xbddb7e22	-0.10717417
60	0xbd52fdc7	-0.051511552
61	0x3de4c312	0.11170019
62	0xbe388b13	-0.18021803
63	0x3e55a7b4	0.20864755
64	0x3e8f3b8d	0.2797512
65	0xbdbdcdc3	-0.092677616
66	0x3dc7583b	0.097336255
67	0xbce12175	-0.027481774
68	0x3e4fd7ed	0.20297213
69	0xbeaeaf49	-0.34118107
70	0x3c8c3860	0.017116725
71	0xbeeb0279	-0.45900324
72	0x3d888f34	0.06667939
73	0xbe2231cc	-0.15839309
74	0x3e2f00a8	0.17090094
75	0x3e45878a	0.19289985
76	0x3eb9b9d1	0.3627458
77	0xbe9e51b4	-0.3092171
78	0xbdb25327	-0.08707266
79	0xbef69a89	-0.48164776
80	0xbe63c336	-0.22242436
81	0x3c8a2335	0.016862491
82	0xbd928afc	-0.071554154
83	0x3e8f253e	0.279581
84	0x3d8db614	0.06919494
85	0xbf039d98	-0.51412344
86	0xbef460fe	-0.4773025
87	0x3d801878	0.06254667
88	0xbe9a81df	-0.3017721
89	0x3dd84dad	0.105616905
90	0xbefef83e	-0.4979877
91	0xbe44ecf7	-0.1923102
92	0xbe890c05	-0.26766983
93	0x3e176abc	0.1478681
94	0x3e77c8d1	0.24197699
95	0xbe504ce1	-0.20341827
96	0xbe4103e7	-0.18849145
97	0xbe39aa8d	-0.18131466
98	0x3e8f2e32	0.27964932
99	0x3eeed91b	0.46650013
100	0x3cac330f	0.02102044
101	0xbf0cc73e	-0.5499152
102	0xbebb2429	-0.36551026
103	0xbd8e9cda	-0.06963511
104	0x3da19d94	0.07891384
105	0x3e16ca38	0.14725578
106	0xbd9554fa	-0.072915986
107	0x3ea80d33	0.3282257
108	0xbdca2af8	-0.09871477
109	0xbe494ca1	-0.19658138
110	0xbdf51ab7	-0.11967986
111	0xbe343f73	-0.17602329
112	0x3e99a9b9	0.300123
113	0x3dd4db93	0.10393443
114	0xbd2c1154	-0.042008713
115	0xbeb759f4	-0.35810816
116	0xbeeddefe	-0.46459192
117	0x3e138a3b	0.144082
118	0x3e66da94	0.22544318
119	0xbd088f9a	-0.033340074
120	0xbe786f9f	-0.2426133
121	0xbe86360a	-0.26213104
122	0x3cd54ae9	0.026036697
123	0x3c6bc172	0.014389383
124	0xbc04ec4c	-0.008112978
125	0x3e52dfa6	0.20593128
126	0xbeda0c25	-0.4258739
127	0x3eb0aaf5	0.3450543
128	0x3e1c3fc8	0.15258706
129	0x3d5be40d	0.053684283
130	0xbe41c500	-0.18922806
131	0xbed65b93	-0.4186674
132	0x3e6120bd	0.21985145
133	0x3e19ec41	0.1503153
134	0x3d393a6f	0.045221742
135	0xbe38c21e	-0.180428
136	0xbee8032b	-0.45314917
137	0x3edd0810	0.43170214
138	0x3e6a1718	0.22860372
139	0xbdd0936b	-0.10184368
140	0xbe8effc3	-0.27929506
141	0xbedd10d2	-0.43176895
142	0x3eabf133	0.33582458
143	0x3e21b430	0.15791392
144	0x3d268c5f	0.040661212
145	0xbe8f9b41	-0.28048137
146	0xbe88720c	-0.2664951
147	0x3e3d74a3	0.18501525
148	0x3e69c4c7	0.22828971
149	0x3dbb7b27	0.09154349
150	0x3d4f6e7a	0.050642468
151	0xbe724f51	-0.2366307
152	0x3d63e4b8	0.055638045
153	0xbe71f991	-0.23630358
154	0xbe0b2d42	-0.13591483
155	0xbdb0c2a6	-0.08630876
156	0xbd6bb90f	-0.057549533
157	0xbe177b4c	-0.14793128
158	0xbe99221b	-0.29908833
159	0xbf1018cf	-0.56287855
160	0xbc2c7029	-0.010524788
161	0xbe7bd9e3	-0.24594836
162	0xbdf9eded	-0.12203584
163	0xbdcfa0e0	-0.10138106
164	0x3dd2fb14	0.103017956
165	0xbcce9c65	-0.02522106
166	0xbe2e340f	-0.17012046
167	0x3cf91021	0.030403199
168	0xbe2c371a	-0.16817895
169	0xbdb849d8	-0.089984596
170	0xbee97d3c	-0.4560336
171	0x3d00735f	0.031360026
172	0xbdda9bc5	-0.10674242
173	0x3c10efc5	0.008846228
174	0xbe7b00e0	-0.24512053
175	0xbe7a826f	-0.24463819
176	0xbcf2df61	-0.029647531
177	0xbda19c25	-0.0789111
178	0x3b852939	0.004063752
179	0xbd8e218e	-0.06939994
180	0xbe0558d9	-0.13022174
181	0xbdefdf3f	-0.11712503
182	0xbeae4746	-0.34038752
183	0x3ec05b81	0.37569812
184	0x3e15c9b4	0.14627725
185	0xbc977f07	-0.018493189
186	0x3e650d0a	0.22368255
187	0xbc469390	-0.012120143
188	0xbdf3fed2	-0.119138375
189	0xbdba93d8	-0.0911023
190	0xbde2a8ad	-0.110673286
191	0xbd93f486	-0.072243735
192	0x3ea8139c	0.3282746
193	0x3d004fac	0.03132598
194	0x3edba13e	0.42896456
195	0xbd9a1cf0	-0.07525051
196	0xbddf53ac	-0.10904631
197	0x3d1d96f4	0.03847404
198	0x3eb6684b	0.35626444
199	0x3c425130	0.011860177
200	0x3c04e910	0.008112207
201	0xbd914f24	-0.07095173
202	0xbcd89130	-0.026436418
203	0x3dc651ec	0.09683594
204	0xbdaf068e	-0.08546172
205	0x3dad557e	0.08463572
206	0x3d35baa8	0.044367462
207	0xbd50ab08	-0.050944358
208	0x3cedaa77	0.029011948
209	0x3e19d2a0	0.15021753
210	0xbda1d01c	-0.07901022
211	0x3e1e5550	0.15462232
212	0x3e9419e5	0.28926006
213	0x3e39ab96	0.18131861
214	0x3eaece0e	0.34141582
215	0xbb59834f	-0.0033189838
216	0xbe031fb5	-0.12805064
217	0x3ee15f8b	0.44018206
218	0xbe2fb852	-0.17160156
219	0xbdf99d9b	-0.12188264
220	0x3d46ffac	0.04858367
221	0xbe0c3242	-0.13691047
222	0xbe39618e	-0.1810362
223	0xbdfb5930	-0.122728705
224	0xbe818625	-0.25297657
225	0xbe940f7f	-0.28918073
226	0x3d860dd6	0.06545608
227	0x3dbdd79e	0.09269641
228	0x3e9966d8	0.29961276
229	0x3eb94236	0.36183327
230	0x3ed1d58e	0.40983242
231	0x3ed469b5	0.41486898
232	0x3e353160	0.17694616
233	0x3ebeb319	0.37246016
234	0x3d91d8b7	0.07121413
235	0x3ed3d2ba	0.4137171
236	0x3ded075e	0.11573671
237	0x3e3c9004	0.18414313
238	0x3e9958ff	0.2995071
239	0x3ed3fc6c	0.4140352
240	0x3dc48b1b	0.09596845
241	0x3e8a591f	0.2702112
242	0x3da09051	0.07840026
243	0x3ed399f8	0.41328406
244	0x3e80e58d	0.25175133
245	0x3eaea186	0.34107608
246	0xbeaa51a5	-0.33265415
247	0xbec1f01c	-0.378785
248	0xbed2b496	-0.411534
249	0xbede6e5e	-0.43443578
250	0xbe92bd24	-0.28659928
251	0x3de47a34	0.11156121
252	0x3e8b5c78	0.27218986
253	0x3e86205d	0.26196566
254	0xbec5c4fd	-0.38626853
255	0xbe88a264	-0.26686394

rnn.weight_hh_l0 f4 [64, 64]
0	0xbe9e04ad	-0.30862942
1	0xbe72d6cb	-0.2371475
2	0xbe6fe4ba	-0.23427096
3	0x3e325793	0.1741622
4	0x3ecd5107	0.4010088
5	0x3e0363b8	0.12831008
6	0xbe2c0e0a	-0.1680223
7	0xbe8fd0dc	-0.28089035
8	0x3cd892e2	0.026437227
9	0x3dca1251	0.09866775
10	0xbdce3738	-0.10069126
11	0xbe790519	-0.24318351
12	0xbe8d053e	-0.27543062
13	0x3da74e4a	0.08169229
14	0xbe13cd94	-0.1443389
15	0x3e89c7c2	0.26910216
16	0x3d0b67af	0.034034427
17	0xbeb92359	-0.3615978
18	0xbddb1c79	-0.1069879
19	0x3e8dd91b	0.277047
20	0xbe84baeb	-0.25923857
21	0x3e37b3bb	0.17939655
22	0x3e62f346	0.22163114
23	0x3dd670dc	0.10470745
24	0xbe9f0a7d	-0.3106269
25	0xbe29cf6b	-0.1658303
26	0x3de80cda	0.11330576
27	0x3d130057	0.035888996
28	0x3e91de8d	0.28490105
29	0xbe364cd3	-0.17802744
30	0xbe6886c8	-0.22707665
31	0x3d577503	0.052601825
32	0x3e0927db	0.1339411
33	0x3deaa9d5	0.11458174
34	0xbe74a399	-0.23890533
35	0x3e8ed4ca	0.2789672
36	0x3e0b2be0	0.13590956
37	0x3ea0be7e	0.31395334
38	0xbe48aead	-0.19597884
39	0x3e3e9aee	0.18613788
40	0x3d6d754e	0.0579732
41	0xbe7d6a1f	-0.24747513
42	0xbe19eda4	-0.15032059
43	0x3dc7a22e	0.0974773
44	0xbcd8e794	-0.026477613
45	0xbe743447	-0.23848067
46	0xbcb0abc7	-0.021566285
47	0xbdfeafcb	-0.124358736
48	0x3e6e3068	0.23260653
49	0x3dcebc47	0.10094505
50	0x3e8ad0a2	0.271123
51	0xbe9d9b72	-0.30782658
52	0x3e0e3ed7	0.13891159
53	0xbe0b60d1	-0.13611151
54	0x3b9e7780	0.004836023
55	0x3cd447a1	0.025913062
56	0xbcd1dec4	-0.025618918
57	0x3f1c559d	0.61068135
58	0xbe4d1f40	-0.20031452
59	0x3e0668bc	0.1312589
60	0xbd9d0d61	-0.076685674
61	0xbd6f98f7	-0.058495488
62	0x3e5b9762	0.21444467
63	0xbde07ad9	-0.10960931
64	0x3d647988	0.055779964
65	0xbea8f3fd	-0.32998648
66	0xbd06e552	-0.03293354
67	0x3eea6ebd	0.45787612
68	0x3e0a705c	0.13519424
69	0xbbfc8d00	-0.007707238
70	0x3da03bcd	0.07823906
71	0x3e3e7f04	0.1860314
72	0x3ef78f7a	0.4835165
73	0x3d64d0f8	0.05586335
74	0xbe936bc3	-0.28793153
75	0xbe397f79	-0.18115033
76	0xbe67eb35	-0.22648318
77	0x3b2a50df	0.0025988144
78	0xbea21bba	-0.3166178
79	0x3cb42bfc	0.02199363
80	0xbe505d46	-0.20348081
81	0xbe3901cd	-0.18067093
82	0x3e17a27c	0.14808077
83	0x3eb12d5b	0.34604916
84	0x3ecde962	0.4021712
85	0x3e9dd2a5	0.30824772
86	0x3eea34c4	0.45743382
87	0xbd3c1be8	-0.04592505
88	0x3e51e994	0.20499259
89	0xbe8e0d88	-0.277447
90	0x3d2fe7f1	0.042945806
91	0x3e942448	0.2893393
92	0x3e488181	0.19580652
93	0xbdd3394c	-0.10313663
94	0xbf07d9e6	-0.5306686
95	0x3e201ef1	0.15636803
96	0x3e8eba44	0.27876484
97	0xbf0f9f99	-0.561029
98	0xbe16c9aa	-0.14725366
99	0x3e4f5a70	0.20249343
100	0xbd75ec52	-0.060039826
101	0xbe93b7da	-0.28851205
102	0xbed393d4	-0.4132372
103	0xbd9fff33	-0.07812347
104	0x3e4cb3bd	0.1999044
105	0xbed187df	-0.40923974
106	0xbea7d1ce	-0.32777256
107	0x3f10bce8	0.5653825
108	0x3de43b0a	0.11144073
109	0xbea92066	-0.3303253
110	0xbe81e458	-0.25369525
111	0xbeaa7c7f	-0.33298108
112	0xbe1249c6	-0.14285955
113	0xbda1baa4	-0.07896927
114	0xbef57c67	-0.47946474
115	0xbe084f1f	-0.13311432
116	0x3de3e4dc	0.11127636
117	0x3ce113a0	0.027475178
118	0x3ec4b4c8	0.38419175
119	0x3e53734f	0.20649455
120	0x3db978f2	0.090562716
121	0x3ef3aff0	0.47595167
122	0xbe0f7cf9	-0.14012517
123	0xbeefb0bf	-0.46814534
124	0xbf301d23	-0.6879446
125	0xbbaa348e	-0.0051942533
126	0xbc72c9ab	-0.014818589
127	0xbe8123eb	-0.25222716
128	0xbdae72c4	-0.085179836
129	0x3e394da0	0.18096018
130	0x3ecdf857	0.4022853
131	0x3e85a486	0.26102084
132	0x3f32f8a5	0.6991065
133	0x3e246444	0.16053873
134	0x3e6b9362	0.23005441
135	0x3f13ff98	0.5781188
136	0x3ef9a2aa	0.48756915
137	0xbefccb40	-0.49373817
138	0xbee000c1	-0.43750575
139	0xbbc70f0c	-0.006074792
140	0xbe06af45	-0.13152798
141	0xbdb80190	-0.08984673
142	0xbc61db6d	-0.013785225
143	0xbcc1f04a	-0.023674149
144	0xbf18851d	-0.59578115
145	0x3e202a44	0.15641123
146	0x3d33c642	0.043890245
147	0x3e7b7394	0.24555808
148	0x3ed2b513	0.41153774
149	0x3db695bd	0.08915279
150	0x3f0c2e89	0.54758507
151	0x3cfe6a62	0.031056587
152	0x3e4e31ec	0.20136231
153	0x3d3717a0	0.044700265
154	0x3f0afba1	0.54290205
155	0xbe60b664	-0.21944577
156	0x3e4ef01f	0.20208786
157	0xbed75bdd	-0.42062274
158	0xbe836c89	-0.25668743
159	0xbc85bf5f	-0.016326604
160	0x3eeb5132	0.45960385
161	0xbeba5435	-0.3639237
162	0x3e5cd32b	0.21564929
163	0x3dd59cfc	0.10430333
164	0xbc48e1fc	-0.01226091
165	0x3d6d0a2c	0.05787103
166	0x3c54a24a	0.012978146
167	0x3e643c03	0.22288518
168	0x3e83b0a8	0.25720716
169	0x3e1e55bf	0.15462397
170	0x3e697fef	0.22802709
171	0x3f33e5d5	0.7027257
172	0xbdeea4f9	-0.1165256
173	0x3d07bc5e	0.033138625
174	0xbea911c2	-0.3302136
175	0x3f0af8cf	0.542859
176	0xbef6c622	-0.48198038
177	0xbd842b69	-0.06453592
178	0x3b22c9ab	0.0024839442
179	0x3e5aeb9a	0.21378937
180	0x3c9c9912	0.019115958
181	0x3ed81979	0.42206934
182	0x3ebf6aa1	0.3738604
183	0xbe06b9bd	-0.13156791
184	0xbe8afffe	-0.27148432
185	0x3f05c79b	0.522577
186	0x3e1ee987	0.15518771
187	0xbdcad042	-0.09903003
188	0x3db314a0	0.08744168
189	0x3ec9c645	0.3940908
190	0xbcf11bb1	-0.02943215
191	0x3e457949	0.19284548
192	0xbec49f7e	-0.38402933
193	0x3c855092	0.01627377
194	0x3e6c2acb	0.23063199
195	0x3e967282	0.29384238
196	0x3e448fe1	0.1919551
197	0x3e259cba	0.16173068
198	0x3e98edd3	0.29868945
199	0x3ecec813	0.4038702
200	0xbdc11645	-0.09428076
201	0xbe851689	-0.25993755
202	0x3d9ffd69	0.07812006
203	0x3f0f0c96	0.5587858
204	0xbea53a45	-0.3227102
205	0x3e49f499	0.19722213
206	0xbe9bae4d	-0.30406418
207	0xbe47c0f5	-0.19507201
208	0xbde89444	-0.113564044
209	0x3d85989e	0.0652325
210	0x3ec7452e	0.38919967
211	0x3dfbb21a	0.122898296
212	0xbdd7a020	-0.10528588
213	0x3ea53fbd	0.3227519
214	0x3e539fdd	0.20666452
215	0x3d0c95a7	0.034322407
216	0x3e718ff0	0.23590064
217	0xbdccb48c	-0.09995374
218	0x3e3c5482	0.18391612
219	0x3e2054d7	0.15657364
220	0x3e893c70	0.26803923
221	0xbe09d89b	-0.13461535
222	0xbe909ad5	-0.28243127
223	0xbe0709d8	-0.13187349
224	0x3eb981ca	0.36231834
225	0xbe3657b4	-0.17806894
226	0x3ce85d7a	0.028364886
227	0xbd5f048f	-0.054447707
228	0x3d93c374	0.07215014
229	0xbe9d9972	-0.30781132
230	0x3dac579a	0.08415146
231	0xbd5f909a	-0.054581262
232	0x3f0ad194	0.5422604
233	0x3e0e3257	0.1388639
234	0x3e94c262	0.29054552
235	0x3ee437ae	0.4457373
236	0x3e00c64e	0.12575647
237	0xbe1c6251	-0.1527188
238	0x3d8521c1	0.06500579
239	0x3df31e44	0.11871007
240	0xbeecefe0	-0.4627676
241	0x3e8d4854	0.27594244
242	0xbecb6b98	-0.39730525
243	0x3ee66718	0.4500053
244	0x3da44c11	0.08022321
245	0x3e4ede7b	0.20202057
246	0xbdab66e3	-0.083692335
247	0xbd85e3f4	-0.06537619
248	0x3c7197dc	0.014745679
249	0x3e0da1b2	0.13831213
250	0xbd6a937d	-0.057269562
251	0xbe8b6873	-0.27228126
252	0x3e103714	0.1408351
253	0x3dad1cdc	0.0845277
254	0x3ecb3239	0.39686754
255	0xbf0c40be	-0.5478629

rnn.bias_ih_l0 f4 [64]
0	0x3c422025	0.011848484
1	0xbe17f126	-0.14838085
2	0x3d57a1fb	0.05264471
3	0xbea778a4	-0.3270923
4	0x3ea50a6a	0.32234508
5	0xbd407d9b	-0.046994787
6	0x3e8a2fdc	0.2698964
7	0xbdfb430f	-0.1226865
8	0x3e176089	0.14782919
9	0xbe1acf41	-0.15118124
10	0x3e39c747	0.18142425
11	0x3e371c20	0.17881823
12	0x3d68c6d6	0.05683025
13	0xbe459368	-0.19294512
14	0xbc0871e1	-0.008327932
15	0x3d1c3369	0.038134966
16	0xbd620f20	-0.055190206
17	0xbdc48d3c	-0.09597251
18	0xbefdb0b9	-0.4954889
19	0x3e07011b	0.13184015
20	0x3da6d30a	0.08145721
21	0xbe6fe502	-0.23427203
22	0xbd01332e	-0.03154295
23	0x3e84b061	0.25915816
24	0x3e934462	0.2876311
25	0x3e7e97b7	0.24862562
26	0x3d3d05b4	0.046148017
27	0xbed68aba	-0.41902715
28	0x3e8fafdd	0.2806386
29	0x3e76e39d	0.24110265
30	0xbe16f82a	-0.14743105
31	0x3d7956ca	0.060873784
32	0x3ca6b280	0.020348787
33	0x3d535451	0.051594082
34	0x3e26aa39	0.16275872
35	0xbda9ea2a	-0.082966164
36	0x3e4d6bc9	0.20060648
37	0x3e88f88e	0.26752132
38	0x3d917682	0.07102682
39	0x3ec33ffc	0.38134754
40	0xbe9b318d	-0.30311242
41	0xbe384722	-0.17995885
42	0x3e6bb293	0.2301734
43	0xbde3935a	-0.111120895
44	0xbd247d5a	-0.040158607
45	0xbe3e448d	-0.18580838
46	0xbbd5f92f	-0.006529949
47	0x3e1763aa	0.14784113
48	0x3e0611cf	0.13092731
49	0x3c4ef44c	0.012631487
50	0x3d14b07b	0.036301117
51	0x3cdb43e0	0.026765764
52	0xbab614d6	-0.0013891708
53	0x3e8eeb00	0.27913666
54	0xbdc6db8b	-0.09709843
55	0xbe4030a0	-0.18768549
56	0x3e8d3196	0.27576894
57	0xbe02f532	-0.12788847
58	0xbf032904	-0.5123446
59	0x3e09009e	0.13379142
60	0xbde16758	-0.110060394
61	0x3e73ccfd	0.23808666
62	0xbdece198	-0.11566466
63	0x3e9b80a8	0.30371594

rnn.bias_hh_l0 f4 [64]
0	0xbdca365e	-0.09873651
1	0xbe926444	-0.28592122
2	0x3e2a6d17	0.16643177
3	0xbe056059	-0.13025035
4	0x3ec40680	0.3828621
5	0xbc76d6bf	-0.015065848
6	0x3e918816	0.28424138
7	0x3ce61963	0.028088277
8	0x3d9c70de	0.07638715
9	0xbe3e54d6	-0.1858705
10	0x3e233133	0.15936737
11	0x3e621977	0.22080027
12	0xbda6b698	-0.08140296
13	0xbe55427a	-0.2082614
14	0x3d4f6659	0.050634716
15	0x3e433ce1	0.19066192
16	0xbd8b5618	-0.068035305
17	0x3d81639c	0.06317827
18	0xbee6ce95	-0.45079485
19	0x3d898e2e	0.06716572
20	0x3d23ac6e	0.039959364
21	0xbd814425	-0.06311826
22	0xbd90d77d	-0.07072351
23	0x3eb043c2	0.34426695
24	0x3da7573e	0.08170937
25	0x3e8f03f1	0.27932695
26	0x3c875145	0.016518245
27	0xbeaba721	-0.33525947
28	0x3e647e0a	0.22313705
29	0x3ee3c268	0.44484258
30	0x3c389672	0.011266338
31	0x3e0e456e	0.13893673
32	0x3dcd5c59	0.100273795
33	0x3dc398a2	0.09550597
34	0xbd3f2c04	-0.046672836
35	0xbe06f294	-0.13178474
36	0x3d43a9b6	0.04776927
37	0x3ec3e8fd	0.38263693
38	0xbe14b564	-0.1452232
39	0x3e87e5b1	0.26542428
40	0xbe7f5d59	-0.24937953
41	0xbe12cddc	-0.14336342
42	0x3e8f8452	0.2803064
43	0xbe2c5205	-0.16828163
44	0xbc83034c	-0.015992783
45	0xbe088238	-0.13330925
46	0x3dc3541c	0.09537527
47	0x3e04fa01	0.12985994
48	0x3e0c2ed8	0.13689744
49	0xbe06fd58	-0.1318258
50	0xbdde8471	-0.10865105
51	0xbe0b6bf6	-0.13615403
52	0xbdc7c72d	-0.09754787
53	0x3eaf36ed	0.34221593
54	0xbcd2939b	-0.02570515
55	0xbe2af910	-0.16696572
56	0x3ea82724	0.32842362
57	0xbdc00b71	-0.09377182
58	0xbe9df69e	-0.30852216
59	0x3de34e14	0.110988766
60	0xbd9e8d73	-0.07741823
61	0x3e175c52	0.14781311
62	0xbd5d610f	-0.05404764
63	0x3e9e4801	0.3091431

rnn.weight_ih_l1 f4 [64, 64]
0	0x3ebef6bb	0.37297615
1	0x3e9f6b50	0.3113656
2	0x3f2034e1	0.62580687
3	0x3dabf197	0.08395689
4	0x3e0f524d	0.13996239
5	0x3a9a4f54	0.0011772909
6	0x3ea0af8d	0.31383935
7	0x3e960144	0.2929784
8	0x3e50d0cf	0.20392154
9	0xbe7addf4	-0.24498731
10	0xbec2a5c9	-0.3801711
11	0x3e849914	0.2589804
12	0xbe7771e7	-0.24164544
13	0x3e9c4509	0.3052142
14	0xbe5a8379	-0.21339215
15	0xbe6ed396	-0.23322901
16	0xbeaee287	-0.34157202
17	0x3c21eca7	0.0098830825
18	0x3e5c5b85	0.21519287
19	0xbd04b246	-0.032396577
20	0xbe5fd44c	-0.21858329
21	0x3e2fcc86	0.17167863
22	0x3dde5a40	0.108570576
23	0xbe620978	-0.22073925
24	0x3e84be43	0.25926408
25	0x3e12bfd5	0.1433099
26	0xbed04df6	-0.4068448
27	0xbec453fe	-0.3834533
28	0x3ea932eb	0.3304666
29	0xbee0fedb	-0.4394444
30	0xbe38b865	-0.18039091
31	0xbd0d7c80	-0.03454256
32	0x3f0de665	0.5542968
33	0x3de48d2e	0.111597404
34	0x3ea2af0f	0.31774184
35	0x3ea0a7ac	0.31377923
36	0xbea3d8e6	-0.32001418
37	0xbeec0bc2	-0.4610272
38	0xbd415014	-0.04719551
39	0xbe0c7b40	-0.13718891
40	0x3d77e32a	0.060519375
41	0xbe7227b0	-0.23647952
42	0xbedb731e	-0.42861265
43	0x3e5d3cab	0.21605174
44	0x3e3dd459	0.18538035
45	0x3e155cfb	0.1458625
46	0xbe8cd37b	-0.27505097
47	0xbd2285cb	-0.039678376
48	0x3bb074d7	0.005385022
49	0x3efa531e	0.48891538
50	0xbf03dc33	-0.5150787
51	0x3df6d1c1	0.12051726
52	0x3d0f714c	0.035020158
53	0x3dafce3b	0.08584257
54	0x3e957d39	0.291971
55	0xbe6ffdfc	-0.23436731
56	0xbed0a3d2	-0.40749985
57	0x3dc5f195	0.09665219
58	0x3e53049b	0.20607226
59	0xbe2fe7ec	-0.17178315
60	0xbe0be02e	-0.13659737
61	0xbdc2150f	-0.09476673
62	0xbe23a693	-0.15981512
63	0xbf09e07d	-0.53858167
64	0x3cd770f8	0.026298985
65	0x3e472ab1	0.19449879
66	0x3d805273	0.06265726
67	0xbea788ef	-0.3272166
68	0xbe95fe5c	-0.29295623
69	0x3e97d229	0.29652527
70	0xbe7573f5	-0.23970015
71	0xbee5417e	-0.4477653
72	0xbf2db7bc	-0.6785848
73	0xbcc47e44	-0.02398599
74	0x3e44f66a	0.19234625
75	0x3dd654c7	0.10465389
76	0x3e16b87d	0.14718814
77	0x3e2aa7de	0.16665599
78	0x3e0d5bbf	0.1380453
79	0xbe4a629a	-0.19764176
80	0xbcaca71b	-0.021075776
81	0xbc1e7ee0	-0.009673804
82	0x3e18f5bc	0.1493749
83	0x3e03d736	0.12875065
84	0xbc587cc9	-0.013213345
85	0xbf0de12e	-0.5542172
86	0xbf0ba530	-0.5454893
87	0x3dabb347	0.08383804
88	0x3d9f977b	0.077925645
89	0x3d8b7faf	0.06811463
90	0x3e6c0587	0.23048984
91	0x3de9da3f	0.1141858
92	0xbe01740a	-0.12641922
93	0x3e9db7a7	0.30804178
94	0x3f0f2931	0.5592223
95	0xbd8985b3	-0.06714954
96	0xbea8b6ea	-0.32952052
97	0x3ef6e746	0.48223323
98	0xbe700985	-0.23441131
99	0xbdc6da80	-0.09709644
100	0x3e15e750	0.1463902
101	0xbde12c44	-0.10994771
102	0x3eef9603	0.46794137
103	0x3e002393	0.1251357
104	0x3e150249	0.14551653
105	0x3e87f958	0.26557422
106	0xbd83d8c6	-0.064378306
107	0xbf3e1c72	-0.74262154
108	0xbeec09e5	-0.461013
109	0x3d65b7c1	0.056083445
110	0x3dabcc19	0.08388538
111	0xbda6a991	-0.08137811
112	0x3e4b636c	0.19862145
113	0xbadf45db	-0.0017034368
114	0x3ed17512	0.4090963
115	0x3e51eb55	0.20499928
116	0x3e37b42b	0.17939822
117	0xbe000e09	-0.12505354
118	0xbec80b3f	-0.3907108
119	0xbe996416	-0.29959172
120	0xbd201324	-0.039080754
121	0xbf1b51e2	-0.6067182
122	0x3e211f85	0.1573468
123	0x3ef5efc5	0.48034492
124	0x3efed9c9	0.49775532
125	0x3dd1078d	0.10206518
126	0x3ee80a43	0.4532033
127	0x3ed11ed2	0.40843827
128	0x3c07cb2c	0.008288186
129	0x3d2d3c80	0.042294025
130	0x3ee960fe	0.45581812
131	0x3f1bab9b	0.60808724
132	0x3f0f61ad	0.56008416
133	0xbdfc1aa7	-0.12309771
134	0xbbf345f5	-0.007424111
135	0x3ebc499f	0.36774918
136	0x3e8b48a0	0.27203846
137	0xbf0145ac	-0.50496936
138	0xbe462be7	-0.19352685
139	0x3f4e39b8	0.8055682
140	0xbebf8428	-0.37405515
141	0xbe17405f	-0.1477065
142	0x3be4977e	0.006976067
143	0xbd8d3553	-0.068949364
144	0xbeccc9d0	-0.3999772
145	0x3dcb81e3	0.09936883
146	0x3ec233bf	0.37930104
147	0xbe892da8	-0.26792645
148	0xbcffbd6d	-0.031218255
149	0xbe6c8c80	-0.23100471
150	0x3f0b8bbf	0.5451011
151	0x3d8c61d6	0.06854598
152	0x3e9d5b40	0.3073368
153	0xbef319f7	-0.47480747
154	0xbe010f03	-0.12603383
155	0xbe2ec196	-0.17066035
156	0x3d9ad6ed	0.07560525
157	0xbb4a0631	-0.0030826444
158	0xbececf0a	-0.40392333
159	0x3e5923c7	0.21205054
160	0x3f3dacf8	0.74092054
161	0xbe8bf9da	-0.2733906
162	0x3e97b3a6	0.29629248
163	0x3e7957f4	0.24349958
164	0xbe501bb4	-0.20323068
165	0x3e09634c	0.13416785
166	0xbe86643e	-0.26248354
167	0xbe233979	-0.15939893
168	0x3e59e3fb	0.21278374
169	0xbe48f66d	-0.19625254
170	0xbe88461a	-0.26615983
171	0x3ea8f3f8	0.32998633
172	0x3eedd126	0.4644863
173	0xbe103777	-0.14083658
174	0xbe891127	-0.267709
175	0xbdcbb571	-0.099467166
176	0xbdd6d641	-0.104900844
177	0x3eac11ef	0.33607432
178	0xbf45616a	-0.7710177
179	0xbcac450a	-0.021029014
180	0x3d02b91c	0.031914815
181	0x3e16efef	0.14739965
182	0x3e909545	0.28238884
183	0x3e0514cf	0.12996219
184	0xbdad934c	-0.0847536
185	0x3e5ac061	0.21362449
186	0x3e932bd0	0.28744364
187	0xbf046e7e	-0.517311
188	0xbd041e6a	-0.032255568
189	0x3e4d1396	0.20027003
190	0xbe9a6e2e	-0.30162185
191	0xbedfb291	-0.43690923
192	0x3ea1c1bb	0.31593117
193	0x3e88fbe5	0.2675468
194	0xbf27ecb9	-0.65595585
195	0xbe935515	-0.2877585
196	0xbed8d6d2	-0.42351395
197	0x3d919ecb	0.071103655
198	0xbe8a0c0e	-0.26962322
199	0x3c393fd9	0.011306726
200	0xbe7f5a08	-0.24936688
201	0x3e3c860f	0.18410514
202	0x3eb36704	0.35039532
203	0xbf2738d7	-0.65321106
204	0x3e070be4	0.1318813
205	0xbdb0858f	-0.08619224
206	0x3e114f99	0.1419052
207	0xbd1c926d	-0.03822558
208	0x3e47110f	0.19440101
209	0xbd8d7e95	-0.06908909
210	0x3edc29cf	0.43000647
211	0x3ec194d6	0.37808865
212	0x3e399475	0.18123038
213	0xbe650838	-0.22366416
214	0x3e231884	0.1592732
215	0xbdfe88ee	-0.12428461
216	0xbedd8dc4	-0.4327222
217	0xbd9117a7	-0.070845895
218	0xbea9a2c2	-0.33131987
219	0x3f48eb3d	0.78483945
220	0x3cf17c77	0.029478295
221	0x3ee7e478	0.45291495
222	0x3e17ec94	0.14836341
223	0x3e0f9806	0.14022836
224	0xbf1ebd74	-0.6200783
225	0xbe0e5091	-0.13897921
226	0xbef74348	-0.4829352
227	0xbd5ea2d7	-0.054354515
228	0x3e9da5c9	0.30790547
229	0xbed0a463	-0.40750417
230	0xbe3bf58c	-0.18355387
231	0x3df40b2d	0.11916194
232	0x3e4e74e6	0.2016178
233	0xbed2e972	-0.4119373
234	0x3e931ea8	0.28734326
235	0xbe0f5a45	-0.13999279
236	0xbf09bc03	-0.5380251
237	0xbd7bec73	-0.061504792
238	0x3edcc7c3	0.43121156
239	0xbe68cc51	-0.2273419
240	0xbe00d1e9	-0.12580074
241	0x3dbde690	0.09272492
242	0x3f0f42f4	0.5596154
243	0xbe983675	-0.29729047
244	0x3e79e672	0.24404314
245	0xbe43ef46	-0.19134244
246	0x3d7ed9a5	0.06221928
247	0xbe117a2a	-0.14206758
248	0x3dc19a17	0.094532184
249	0xbe8a8171	-0.2705188
250	0xbdadb20e	-0.08481227
251	0x3dbd3387	0.09238344
252	0xbf02112a	-0.5080744
253	0xbe8b4dd0	-0.27207804
254	0x3e66d44c	0.22541922
255	0xbcaf3400	-0.0213871

rnn.weight_hh_l1 f4 [64, 64]
0	0xbd60ce3c	-0.05488418
1	0x3a75bb7d	0.0009373946
2	0xbd2670f0	-0.04063505
3	0xbd9d12fd	-0.07669637
4	0xbdaf27e1	-0.08552528
5	0x3bf0fc66	0.007354307
6	0x3cda21f8	0.026627526
7	0xbd8240b0	-0.063599944
8	0xbd924d46	-0.07143645
9	0xbddaa9b3	-0.10676899
10	0x3d0dcfe0	0.034622073
11	0xbcbc2e72	-0.022971366
12	0x3dfa184d	0.12211666
13	0xbe81784b	-0.2528709
14	0x3e178e15	0.14800294
15	0x3d1d078d	0.03833728
16	0xbe82e00b	-0.25561556
17	0xbda662ef	-0.08124339
18	0x3d70e703	0.05881406
19	0xbe195550	-0.1497395
20	0x3e4fb061	0.20282127
21	0xbb134e4f	-0.0022477095
22	0x3e6f88a7	0.23391972
23	0x3ce337b0	0.027736515
24	0x3e0e1ad4	0.13877422
25	0x3e2ab862	0.16671899
26	0x3a9a5859	0.0011775597
27	0xbd3f25f5	-0.046667058
28	0xbe1e6214	-0.15467101
29	0xbe01f0da	-0.12689534
30	0xbdca0563	-0.09864309
31	0x3c222ce4	0.009898398
32	0xbb8a27a3	-0.004216151
33	0x3e1d2b9f	0.15348671
34	0x3d2e2405	0.04251482
35	0x3d228cc3	0.039685022
36	0x3d39f866	0.045402907
37	0xbdb3a73c	-0.08772132
38	0xbde108f4	-0.10988036
39	0x3d856ab7	0.06514495
40	0xbdaeff80	-0.085448265
41	0xbd904368	-0.07044107
42	0xbe18c0c1	-0.1491728
43	0x3bf61bf1	0.007510655
44	0xbe0b9c7f	-0.13633917
45	0x3dae3b3c	0.08507392
46	0x3e7f010b	0.24902742
47	0xbe19c096	-0.15014872
48	0x3c8f75fd	0.017512316
49	0xbdf93bc3	-0.12169602
50	0x3e702a7c	0.23453707
51	0xbd2bfa56	-0.041986786
52	0xbe680a2e	-0.22660133
53	0xbd8b99c2	-0.06816436
54	0xbdce4f7c	-0.10073754
55	0xbd851478	-0.06498045
56	0x3e0c21b6	0.13684735
57	0xbdf62a13	-0.12019744
58	0xbd98c79a	-0.07459946
59	0xbd654818	-0.055976957
60	0x3d807f61	0.062742956
61	0xbe094033	-0.13403396
62	0x3e72c2cc	0.23707122
63	0xbe0ed9e8	-0.13950312
64	0x3ed0053d	0.40628996
65	0x3d87f4f0	0.06638515
66	0x3eae4ee2	0.34044558
67	0x3c21b14d	0.009868932
68	0xbeae4207	-0.3403475
69	0xbe9b609c	-0.30347145
70	0x3d368e69	0.044569407
71	0x3df1f7e8	0.118148625
72	0xbe0c2eed	-0.13689776
73	0xbe284496	-0.16432413
74	0xbe46d340	-0.19416523
75	0xbeb6d0bb	-0.35706124
76	0x3eacf613	0.3378149
77	0xbe57e7dd	-0.21084543
78	0x3e2944d1	0.16530158
79	0xbe9a2a31	-0.30110314
80	0xbe476c2e	-0.19474861
81	0x3ea05fb0	0.31323004
82	0x3eb7bc0b	0.35885653
83	0xbe8d1e37	-0.27562115
84	0x3d11dc3e	0.03561043
85	0x3c9de3b1	0.01927361
86	0x3e854d62	0.260356
87	0x3d91989e	0.071091875
88	0x3e9028ea	0.28156215
89	0x3e9b25c0	0.30302238
90	0x3e514fad	0.2044055
91	0x3d117fa4	0.03552212
92	0xbea7ed4f	-0.3279824
93	0x3d94aadc	0.07259151
94	0xbd8a4e01	-0.06753159
95	0xbe2b43fb	-0.16725151
96	0x3e1eb009	0.1549684
97	0x3eeb689c	0.45978248
98	0xbea46ca4	-0.32114136
99	0x3e19d9ea	0.15024534
100	0xbdfd2181	-0.12359906
101	0x3e112b52	0.14176682
102	0x3eb56e0e	0.35435528
103	0x3de2032c	0.11035761
104	0xbe154cf8	-0.14580142
105	0x3e639f01	0.22228624
106	0xbd847603	-0.064678214
107	0x3edb351f	0.42813966
108	0xbec11680	-0.3771248
109	0x3cbf0633	0.023318386
110	0x3d29d05f	0.041458484
111	0xbe31d12d	-0.1736495
112	0x3e99ca25	0.30037037
113	0xbe3861c2	-0.18006042
114	0x3e40ddf3	0.18834667
115	0xbed74f3f	-0.42052647
116	0xbe3adbbd	-0.18247886
117	0xbeb8dd8b	-0.36106524
118	0xbe883af0	-0.26607466
119	0xbe802cfa	-0.25034314
120	0x3e2d79fc	0.16941065
121	0xbeceffc6	-0.40429515
122	0xbe8b3611	-0.27189687
123	0x3e971ff7	0.29516575
124	0x3ec288c6	0.37994975
125	0xbe08db56	-0.1336492
126	0xbe92250c	-0.2854389
127	0x3b51e4dc	0.003202728
128	0xbe780a65	-0.24222715
129	0xbecca97f	-0.39973065
130	0x3e661c49	0.22471727
131	0x3da8d385	0.08243469
132	0x3bb48284	0.0055087227
133	0xbdeb7e84	-0.1149874
134	0x3ecb8688	0.39751077
135	0x3ef016bb	0.46892342
136	0xbcfd78c2	-0.03094137
137	0xbe46f7f3	-0.19430523
138	0xbdfd65b1	-0.12372912
139	0x3e6be983	0.23038296
140	0xbe60a703	-0.2193871
141	0xbe913e28	-0.28367734
142	0x3eed4db7	0.46348354
143	0xbecaeeaf	-0.39635226
144	0xbe3eb29d	-0.18622823
145	0xbe62650c	-0.22108859
146	0xbe944543	-0.28959092
147	0xbe6d4a9d	-0.23172994
148	0x3eafe3dc	0.3435353
149	0xbccb4f32	-0.024818037
150	0xbe2eee22	-0.17083028
151	0x3e4f1fa2	0.2022691
152	0xbeb2f8e6	-0.3495552
153	0x3e8257fd	0.25457755
154	0xbe013449	-0.12617601
155	0xbe8da718	-0.27666545
156	0xbe97e0a0	-0.29663563
157	0x3e758836	0.23977742
158	0xbeeda56e	-0.46415275
159	0x3ca796b7	0.020457609
160	0xbe1393eb	-0.14411895
161	0xbe537260	-0.206491
162	0x3d03fe2a	0.03222481
163	0x3ebac5f6	0.36479157
164	0x3e12432c	0.14283437
165	0xbef43533	-0.47696838
166	0xbe6f385c	-0.23361343
167	0x3e55e486	0.20887956
168	0xbeac6801	-0.336731
169	0x3e3f4ee3	0.18682437
170	0x3eb4f55e	0.3534345
171	0xbe2ff672	-0.17183855
172	0xbe1bbb4e	-0.1520817
173	0xbcaa9918	-0.020824954
174	0x3e90795b	0.28217587
175	0xbc32785d	-0.010892955
176	0xbe9a3311	-0.30117086
177	0x3ef7d4ca	0.48404533
178	0x3e99cfc0	0.30041313
179	0x3e0386e7	0.1284443
180	0xbec53737	-0.38518688
181	0xbe3e83e9	-0.18605007
182	0x3e4afa2d	0.19821997
183	0xbc33f9f4	-0.010984886
184	0xbe1b8eda	-0.15191212
185	0x3da97325	0.08273915
186	0xbe58bff3	-0.21166973
187	0xbdd23b09	-0.10265166
188	0xbe80ca54	-0.25154364
189	0x3cc3a686	0.023883116
190	0x3edb36e8	0.42815328
191	0x3c8fb31f	0.017541466
192	0xbde1fc64	-0.11034468
193	0xbe53105e	-0.20611712
194	0x3d802387	0.06256776
195	0x3ed1cbb0	0.40975714
196	0x3e4daeac	0.20086163
197	0xbe19d25f	-0.15021656
198	0xbe27d4a5	-0.16389711
199	0xbe4b9e97	-0.19884716
200	0x3c67361b	0.014112021
201	0xbd9b1d70	-0.07573974
202	0x3e937699	0.2880142
203	0xbda5936e	-0.080847606
204	0xbd8df870	-0.06932151
205	0x3e0c7565	0.13716657
206	0xbeb3d152	-0.35120636
207	0x3ed31db0	0.41233587
208	0xbd048360	-0.03235185
209	0xbd33c116	-0.043885313
210	0xbd96f742	-0.073713794
211	0x3e3ae37e	0.18250844
212	0xbe4ab3ea	-0.19795194
213	0xbec5530e	-0.38539928
214	0xbea9602f	-0.33081195
215	0xbc2224d7	-0.009896479
216	0xbe34bbba	-0.17649737
217	0x3df2ed9c	0.11861727
218	0xbeaffe5d	-0.3437375
219	0xbe7fdb09	-0.24985899
220	0x3d8ba2d9	0.0681817
221	0xbde5a0e1	-0.11212326
222	0x3e677308	0.22602475
223	0x3de7c220	0.11316323
224	0xbda0571c	-0.07829115
225	0x3a3a06e9	0.00070963666
226	0x3df17b5b	0.11791106
227	0x3dcfa87c	0.10139558
228	0xbd01c250	-0.03167945
229	0x3d604454	0.054752663
230	0xbbc254e4	-0.00593053
231	0xbe319391	-0.17341448
232	0xbc506c28	-0.012721099
233	0x3d2e3f3f	0.042540785
234	0x3e4cb167	0.19989549
235	0x3d25daeb	0.04049198
236	0xbe7b3add	-0.24534173
237	0xbe17fe95	-0.14843209
238	0xbe792052	-0.24328735
239	0x3f064a84	0.5245745
240	0xbf2a4443	-0.6651041
241	0xbe3749f7	-0.17899309
242	0xbd651747	-0.055930402
243	0x3daac52b	0.08338388
244	0x3e2579a3	0.16159682
245	0xbf1fac8b	-0.62372655
246	0x3e82e667	0.25566408
247	0x3cffe2a9	0.03123601
248	0xbea9f3c9	-0.33193806
249	0x3e6e509d	0.23272939
250	0x3eb2e6b6	0.34941643
251	0xbe943f2d	-0.2895445
252	0xbdaaf705	-0.083478965
253	0x3f111a1e	0.56680477
254	0x3e185348	0.1487552
255	0x3eadd952	0.33954865

rnn.bias_ih_l1 f4 [64]
0	0xbd392b46	-0.045207284
1	0x3e3819ef	0.17978643
2	0x3f0275a6	0.5096077
3	0x3dcff7e0	0.101547
4	0xbe13b624	-0.1442495
5	0x3ddaaaff	0.10677146
6	0xbec437b8	-0.3832376
7	0xbe2da0b5	-0.16955836
8	0xbdd295f8	-0.102825105
9	0x3e61e71c	0.22060817
10	0x3ce72fa8	0.028220966
11	0xbe7d2afb	-0.24723427
12	0x3e9dc3d8	0.3081348
13	0xbe972844	-0.29522908
14	0x3e55121b	0.20807688
15	0xbea37e97	-0.31932518
16	0xbe01a1e5	-0.12659414
17	0xbd070a1e	-0.032968633
18	0x3d60089b	0.054695707
19	0xbd900cec	-0.07033715
20	0xbe0038d5	-0.1252168
21	0x3e18f677	0.14937769
22	0xbe18fc46	-0.14939985
23	0x3e417d35	0.18895419
24	0xbd7b285f	-0.061317798
25	0xbe89151f	-0.26773927
26	0xbe2480ff	-0.16064833
27	0x3caf87ad	0.021427
28	0xbe0229e4	-0.12711293
29	0xbeb78b1a	-0.35848314
30	0x3e6c2a8f	0.2306311
31	0x3e156f91	0.1459334
32	0xbe3d8e13	-0.18511228
33	0xbe13470c	-0.14382571
34	0x3bba43c2	0.005684347
35	0x3cd8db65	0.026471803
36	0x3e82734f	0.25478598
37	0xbe8132a7	-0.25233957
38	0x3e14b163	0.14520793
39	0x3de1b851	0.11021484
40	0xbeafe2b3	-0.34352645
41	0xbc615d92	-0.013755219
42	0xbd7f883b	-0.06238578
43	0x3d722c68	0.05912438
44	0x3c806595	0.015673438
45	0xbe3eee98	-0.18645704
46	0x3c708300	0.01467967
47	0x3d56d229	0.052446518
48	0x3e6697d3	0.22518854
49	0x3ca8f23b	0.020623317
50	0x3ebe0753	0.37114963
51	0x3e02404c	0.1271984
52	0xbe8f8d0b	-0.28037295
53	0xbdb9558c	-0.0904952
54	0xbdd30795	-0.103041805
55	0xbe6b99c5	-0.23007877
56	0x3e18484e	0.14871332
57	0xbdb303bb	-0.08740946
58	0xbf1edaad	-0.6205242
59	0xbed7cd81	-0.42148975
60	0x3e5173fe	0.20454404
61	0xbda58c33	-0.080833815
62	0xbd098430	-0.03357333
63	0x3cf65a55	0.03007237

rnn.bias_hh_l1 f4 [64]
0	0x3d0f36f4	0.034964517
1	0x3e86dc6e	0.2634005
2	0x3ef28dab	0.4737371
3	0x3d38552a	0.045003094
4	0xbe142fa1	-0.14471294
5	0x3e982574	0.29716074
6	0xbefb3212	-0.49061638
7	0x3c23fa7f	0.010008453
8	0xbdeb98b3	-0.115037344
9	0x3e37f15f	0.1796317
10	0x3df3a9e9	0.11897642
11	0xbe5cb122	-0.21551946
12	0x3e78c41e	0.24293563
13	0xbf01c83b	-0.5069615
14	0x3e943802	0.2894898
15	0xbeb44c9b	-0.35214695
16	0xbe7629d9	-0.24039401
17	0xbcbd0bd4	-0.02307693
18	0xbcafc645	-0.021456847
19	0xbda3b090	-0.07992661
20	0xbe8d6a6c	-0.27620256
21	0x3e29d496	0.16585001
22	0xbde0b9dc	-0.1097295
23	0x3d9844ed	0.074350215
24	0x3d933fc4	0.07189897
25	0xbe7d5577	-0.24739634
26	0xbe40cda6	-0.18828449
27	0xbdb3611f	-0.08758759
28	0xbd10b19c	-0.03532563
29	0xbe86df1c	-0.26342094
30	0x3e479737	0.19491278
31	0x3caa6542	0.020800237
32	0xbe0642fd	-0.13111492
33	0xbe6f8364	-0.23389965
34	0xbda96a7a	-0.08272262
35	0x3dd49f23	0.103819154
36	0x3e07706a	0.13226476
37	0xbe94bffa	-0.29052716
38	0x3e0bfda7	0.1367098
39	0x3e940223	0.2890788
40	0xbe706019	-0.23474158
41	0x3e11aab7	0.14225279
42	0xbe109e08	-0.14122784
43	0xbde40c15	-0.11135117
44	0xbdd3d5be	-0.103435025
45	0xbe58b794	-0.2116378
46	0x3d5e1605	0.05422022
47	0xbd92e696	-0.07172887
48	0xbbcbbfaa	-0.0062179165
49	0x3d38e227	0.04513755
50	0x3e4f458e	0.20241377
51	0x3d03b5ce	0.032155804
52	0xbe7e682b	-0.24844424
53	0xbdf23428	-0.11826354
54	0xbe3271cd	-0.17426224
55	0xbe42eb22	-0.19035009
56	0x3e2ecb0c	0.17069644
57	0xbe7f59da	-0.2493662
58	0xbf18ced9	-0.59690624
59	0xbf111f27	-0.5668816
60	0x3d8b618f	0.06805717
61	0xbe8052ab	-0.2506307
62	0xbe2f4289	-0.17115225
63	0x3d4d5d98	0.050138086

rnn.weight_ih_l2 f4 [64, 64]
0	0xbf0ae33b	-0.54252976
1	0x3e17ffad	0.14843626
2	0xbf068fd8	-0.5256324
3	0x3e6b86a9	0.23000588
4	0x3f09b0ff	0.537857
5	0xbe39b3c5	-0.18134983
6	0xbde34b95	-0.110984005
7	0xbe1aa8fd	-0.15103526
8	0x3ea4de5f	0.32200906
9	0x3e870e4a	0.2637809
10	0x3efcaf39	0.49352434
11	0x3ded56e4	0.11588839
12	0xbe202c98	-0.15642011
13	0x3efc69f7	0.49299595
14	0xbf078cb6	-0.5294908
15	0x3ecc2a9e	0.39876264
16	0x3f12830f	0.5723123
17	0xbea9ed9a	-0.33189088
18	0xbe9af78c	-0.30266988
19	0x3d074f2d	0.033034492
20	0xbe875832	-0.26434475
21	0xbf1e752e	-0.6189755
22	0xbf0fa803	-0.5611574
23	0xbe7642d3	-0.24048929
24	0xbdfd378a	-0.12364109
25	0x3dd1b98e	0.1024047
26	0x3d6f1b85	0.058375854
27	0xbf0df557	-0.55452484
28	0x3e9b2362	0.30300432
29	0xbe60dd3e	-0.21959397
30	0x3d279e4b	0.040922444
31	0xbd6911f0	-0.056901872
32	0x3d71f78b	0.059073966
33	0xbde23e40	-0.110470295
34	0x3ecc7526	0.39933127
35	0x3df464d1	0.11933292
36	0x3eb2aad6	0.34895962
37	0x3e63d8bc	0.22250646
38	0xbe5b043b	-0.21388333
39	0xbe3eaec1	-0.18621351
40	0x3ecb19b7	0.39668056
41	0xbd82ae7f	-0.06380939
42	0x3def1f2c	0.116758674
43	0xbeabcc8b	-0.3355449
44	0x3ed61fc6	0.41821116
45	0x3c92ae37	0.017905338
46	0xbf2b9abb	-0.67032975
47	0x3df740b5	0.12072889
48	0xbd34779d	-0.044059385
49	0xbea6eefa	-0.326042
50	0xbf2d7def	-0.67770284
51	0x3ee3fab9	0.44527224
52	0xbd847c13	-0.06468978
53	0xbc822106	-0.015884887
54	0x3ea1e660	0.31621075
55	0x3e84de39	0.25950792
56	0xbef90c42	-0.48642164
57	0x3f3b9e2a	0.73288214
58	0x3e6b3753	0.22970323
59	0xbeecd27b	-0.46254334
60	0xbf136482	-0.5757524
61	0x3d349f13	0.044097017
62	0x3d8f56b3	0.069989584
63	0x3e333645	0.17501171
64	0xbe83aded	-0.25718632
65	0x3e92859e	0.28617567
66	0xbf5a1fcc	-0.8520477
67	0x3f3ab398	0.7293029
68	0x3e98908b	0.29797778
69	0x3e2efc70	0.17088485
70	0xbec59973	-0.38593635
71	0xbe9980d3	-0.29981098
72	0x3f433936	0.7625917
73	0x3f1fc228	0.62405634
74	0x3f174832	0.59094536
75	0x3ee43570	0.4457202
76	0xbca55845	-0.020183692
77	0x3f24c291	0.64359385
78	0xbea392e2	-0.31948
79	0xbd2613dd	-0.040546287
80	0x3f0f3d4a	0.55952895
81	0xbe53693b	-0.20645611
82	0xbebcecb6	-0.36899346
83	0xbe0bb97d	-0.13644977
84	0xbe979c2e	-0.29611343
85	0xbec8214b	-0.390879
86	0xbe10712f	-0.14105676
87	0xbefdf8bf	-0.4960384
88	0xbee80f03	-0.45323953
89	0x3da8b388	0.08237368
90	0xbf3b25c9	-0.7310453
91	0xbe4528e2	-0.19253877
92	0x3e94b9ca	0.29047996
93	0xbde00b00	-0.10939598
94	0x3f07f255	0.53104144
95	0x3f1c22de	0.60990703
96	0x3f291f6a	0.6606356
97	0x3d0388b6	0.0321128
98	0x3f3b5daf	0.73189825
99	0xbdc46560	-0.09589648
100	0x3ecef487	0.40420935
101	0x3eaa8f83	0.33312616
102	0xbd8fea44	-0.070271045
103	0xbee1dd70	-0.44114256
104	0x3f43675c	0.7632959
105	0xbf374164	-0.71584153
106	0x3e85256e	0.2600512
107	0xbf3c4466	-0.7354187
108	0x3eb6538a	0.3561061
109	0x3e8a7919	0.27045515
110	0xbe3b8e68	-0.18316042
111	0x3e7ae141	0.2449999
112	0xbcceaa7a	-0.025227774
113	0xbf1453f2	-0.5794059
114	0xbed0d6e9	-0.40788963
115	0x3e40908f	0.18805145
116	0x3e41b119	0.18915214
117	0x3e5d9ea8	0.21642554
118	0x3e5b9673	0.2144411
119	0x3f42f1a0	0.7614994
120	0xbdf266a1	-0.11835981
121	0x3f0995ff	0.537445
122	0x3de37edb	0.1110818
123	0x3d70867c	0.058722004
124	0xbe05c0d1	-0.13061835
125	0xbde6f15d	-0.11276505
126	0x3e53a3de	0.20667979
127	0x3e1ea890	0.15493989
128	0x3edceb0c	0.43148077
129	0xbe9601be	-0.29298204
130	0xbdfe5e2a	-0.12420304
131	0xbe9738aa	-0.2953542
132	0xbe49c015	-0.1970218
133	0x3dc0113b	0.093782865
134	0xbe492d9b	-0.19646303
135	0x3c8d568e	0.017253187
136	0x3ddb15c2	0.10697509
137	0x3ec50aa4	0.3848468
138	0xbe03ef6b	-0.128843
139	0x3e9bc592	0.30424172
140	0xbecc7ac7	-0.39937422
141	0x3dbbd73d	0.09171913
142	0x3eba4649	0.36381748
143	0xbda41987	-0.080126815
144	0x3e55c832	0.2087715
145	0xbe46658b	-0.19374673
146	0xbe302595	-0.17201836
147	0x3dfe27ea	0.12409957
148	0xbda1c236	-0.07898371
149	0x3e0aca76	0.13553795
150	0xbe64e448	-0.22352707
151	0xbe1b7a95	-0.1518348
152	0xbe8a4d40	-0.27012062
153	0x3df4db5a	0.119559005
154	0x3e3f17db	0.18661444
155	0x3e2b3e49	0.16722979
156	0xbdd3632f	-0.10321652
157	0xbe98065a	-0.29692346
158	0x3c794fc3	0.015216771
159	0x3ead9f91	0.33910802
160	0xbe8e31d2	-0.27772385
161	0x3bd45659	0.00648002
162	0x3e64982f	0.22323678
163	0xbeb9f072	-0.36316258
164	0x3eb41ae6	0.35176772
165	0xbe9336e6	-0.28752822
166	0xbc004174	-0.007828105
167	0xbe311c27	-0.17295896
168	0x3cedc58d	0.029024864
169	0xbe75e66d	-0.24013682
170	0x3e9d79c4	0.30756962
171	0xbe59fde9	-0.21288265
172	0x3ebd3a76	0.36958665
173	0x3e9c26a2	0.30498224
174	0xbdb1e79a	-0.086867526
175	0x3dfc80c9	0.12329251
176	0x3e6e1171	0.23248841
177	0x3e933089	0.28747967
178	0x3d4af8ef	0.049553808
179	0x3ec70fc6	0.38879222
180	0x3a9e9cfd	0.001210123
181	0x3e1ac5c6	0.15114507
182	0x3ea95485	0.33072296
183	0xbcd45e9f	-0.025924025
184	0xbe017367	-0.12641679
185	0xbe42fdd2	-0.19042137
186	0xbc401c83	-0.011725548
187	0xbe82ad5c	-0.25522888
188	0xbe60308c	-0.21893519
189	0x3e784ccb	0.24248044
190	0x3d5f72e9	0.054552946
191	0xbbdc555f	-0.006724044
192	0xbdbf1451	-0.09330047
193	0xbd665005	-0.056228656
194	0x3e33d0d2	0.17560127
195	0x3db4f3ba	0.0883555
196	0x3bc11bd5	0.0058932104
197	0xbe825670	-0.25456572
198	0x3f0af887	0.5428547
199	0x3f0b22d3	0.5435001
200	0xbf13c971	-0.5772925
201	0xbecd89bd	-0.40144148
202	0x3ddc25e7	0.10749417
203	0xbec5a837	-0.386049
204	0xbe0b54ee	-0.13606617
205	0xbf0ae6fd	-0.5425871
206	0x3e843c7c	0.25827396
207	0xbdafe570	-0.085886836
208	0xbdc398f4	-0.09550658
209	0x3d66e528	0.056370884
210	0xbe98ce99	-0.29845122
211	0xbee61269	-0.4493592
212	0x3ecdda77	0.40205738
213	0xbdfb8de4	-0.12282923
214	0xbdca4ff3	-0.0987853
215	0x3e60d690	0.21956849
216	0xbe1e0c99	-0.15434493
217	0x3e249eb6	0.16076168
218	0x3d77598d	0.060388137
219	0x3e2385c3	0.15968995
220	0xbd0aa3f2	-0.033847757
221	0x3ee23ce4	0.4418708
222	0xbe986a82	-0.2976876
223	0x3e5e42f7	0.21705233
224	0xbeb24e87	-0.34825537
225	0xbf07e27f	-0.5307998
226	0x3e45615a	0.19275418
227	0x3f230b24	0.63688874
228	0xbebea78e	-0.3723721
229	0xbf126ee2	-0.57200444
230	0xbd92085c	-0.07130501
231	0x3f1b44ee	0.60652053
232	0xbd020c99	-0.031750295
233	0xbe512b85	-0.20426758
234	0x3d96874d	0.07350025
235	0x3d0fbf84	0.035094753
236	0xbc5c852b	-0.013459484
237	0xbef3d603	-0.47624215
238	0x3cc53243	0.024071818
239	0x3e2c4795	0.16824181
240	0xbf2fa774	-0.6861489
241	0x3e71584a	0.23568836
242	0xbdf4c3fa	-0.11951442
243	0xbeb87203	-0.36024484
244	0xbf1ea807	-0.6197514
245	0xbef5b0ef	-0.47986552
246	0x38b3845e	8.5600404e-05
247	0x3daedf94	0.08538738
248	0xbcc993c3	-0.024606591
249	0x3e2505fa	0.16115561
250	0x3e3aad06	0.18230066
251	0xbd94a752	-0.07258476
252	0xbeeb3b64	-0.4594375
253	0xbd130b23	-0.035899293
254	0x3e9a1aeb	0.30098662
255	0xbe9aa36a	-0.302028

rnn.weight_hh_l2 f4 [64, 64]
0	0x3e9f7fa5	0.31152073
1	0xbdde67e6	-0.10859661
2	0xbe93b990	-0.2885251
3	0xbe164d93	-0.1467803
4	0xbe4b8ad4	-0.19877177
5	0xbe13fe73	-0.14452533
6	0xbdb116e4	-0.08646944
7	0x3e371421	0.17878772
8	0xbeac5e3c	-0.33665645
9	0xbe066574	-0.13124639
10	0x3e9caf91	0.30602697
11	0xbdcba89c	-0.09944269
12	0x3ed924c4	0.42410862
13	0xbe7622d8	-0.2403673
14	0x3c4ec62e	0.012620492
15	0x3eadeddf	0.33970544
16	0xbe9dddec	-0.30833375
17	0xbe7bfede	-0.24608943
18	0x3ce718d4	0.028210081
19	0x3cb7d954	0.022442497
20	0x3cd00a2a	0.025395472
21	0x3de0fcf7	0.10985749
22	0xbea1e7ea	-0.3162225
23	0xbbbed071	-0.005823188
24	0x3db98e81	0.090603836
25	0xbdfed4ba	-0.12442918
26	0xbc43e09b	-0.011955406
27	0xbe252885	-0.16128738
28	0x3d44933c	0.047991976
29	0x3d6d1598	0.05788192
30	0xbe2bd842	-0.16781715
31	0xbe80819a	-0.25098878
32	0xbd78cf8a	-0.0607448
33	0xbe684048	-0.22680771
34	0x3dadc66c	0.084851116
35	0x3e661d0f	0.22472022
36	0xbded6d37	-0.11593097
37	0xbea9a17c	-0.33131015
38	0xbd56c0e6	-0.052430056
39	0x3db1887a	0.08668609
40	0x3e390203	0.18067174
41	0xbe79ba09	-0.24387373
42	0x3e1add1e	0.15123412
43	0x3de70730	0.11280668
44	0xbe5c544b	-0.2151653
45	0x3cedaca0	0.029012978
46	0xbe7d85b2	-0.24758032
47	0x3e6e46bc	0.2326917
48	0xbe0e1915	-0.13876756
49	0x3db7a5d2	0.089671746
50	0xbe620731	-0.22073056
51	0xbd8cba23	-0.0687144
52	0x3e7796b4	0.24178582
53	0xbe8078f0	-0.25092268
54	0x3d0abfa2	0.03387416
55	0xbdd51599	-0.1040451
56	0xbe230d61	-0.15923072
57	0x3d9acd3d	0.07558677
58	0x3e9636b4	0.2933861
59	0x3e9224bc	0.2854365
60	0x3ea65def	0.3249354
61	0x3e9b66f7	0.30351993
62	0xbde22998	-0.1104309
63	0xbeaea17c	-0.34107578
64	0xbdb96dd9	-0.09054155
65	0xbe40a377	-0.18812357
66	0xbd3dbe2b	-0.046323936
67	0xbcb8449b	-0.022493651
68	0x3dfc028e	0.12305175
69	0x3d2890a2	0.041153558
70	0x3cbaa5d1	0.022784146
71	0x3e813cf3	0.25241813
72	0xbc8677be	-0.01641452
73	0x3d198dbe	0.03748869
74	0x3e2d2f76	0.16912636
75	0x3e188e9b	0.1489815
76	0x3d540ac4	0.05176808
77	0xbbf83707	-0.007574919
78	0xbc9d0435	-0.019167045
79	0x3e4b40e9	0.1984898
80	0xbd3bea6d	-0.045877863
81	0xbd880d42	-0.06643154
82	0x3e1123e1	0.14173843
83	0x3dd6e9ef	0.10493838
84	0x3e67a342	0.22620872
85	0x3ca0f05c	0.019645862
86	0x3e03615f	0.12830113
87	0xbde80fb9	-0.11331124
88	0x3d197489	0.037464652
89	0x3cde112d	0.0271078
90	0x3d6282aa	0.055300392
91	0xbd5be0ec	-0.0536813
92	0xbf003eb6	-0.5009569
93	0x3d9d3470	0.07676017
94	0xbdbbeb5e	-0.09175752
95	0xbdc3d512	-0.09562124
96	0xbca58ad2	-0.020207796
97	0x3e269ce1	0.16270782
98	0xbdf99a7f	-0.12187671
99	0xbd1896d9	-0.037253235
100	0xbe59b4ea	-0.2126042
101	0xbe7f41ad	-0.24927397
102	0xbe34f5f7	-0.17671953
103	0xbda5ac0a	-0.080894545
104	0x3e8d285a	0.27569848
105	0x3c3af156	0.011410078
106	0xbdfa3b13	-0.12218299
107	0xbd0d691a	-0.03452406
108	0xbd4cf581	-0.05003882
109	0xbc9e4cb3	-0.019323682
110	0xbd47e82b	-0.048805397
111	0xbd451aee	-0.048121385
112	0x3db72bfe	0.08943938
113	0xbe187a79	-0.1489047
114	0xbe0b4818	-0.1360172
115	0x3d8bbf8c	0.06823644
116	0xbdda3f9b	-0.10656663
117	0x3e7f069c	0.24904865
118	0x3dfe69b2	0.124225035
119	0x3e1b580c	0.15170306
120	0x3db6c60c	0.08924493
121	0x3cbe4e11	0.023230584
122	0x3e075bb9	0.13218583
123	0xbb1cb503	-0.0023911602
124	0xbbaeda5f	-0.0053360905
125	0x3e43bfc2	0.19116119
126	0xbc9eaab3	-0.019368505
127	0x3c9e3aa1	0.019315066
128	0x3dd0cc4e	0.10195218
129	0x3d36e420	0.04465115
130	0xbe8e1d72	-0.2775684
131	0xbe3c3aad	-0.18381758
132	0xbd9562b4	-0.07294217
133	0x3ead669d	0.3386735
134	0xbd50afc2	-0.050948866
135	0xbf04f168	-0.51930857
136	0xbe1315c7	-0.14363776
137	0xbdf1c80e	-0.118057355
138	0x3e4121ba	0.18860522
139	0x3dc8f74a	0.09812792
140	0x3ef50816	0.47857732
141	0xbde30ba7	-0.11086207
142	0xbdd5548c	-0.10416517
143	0x3e92d409	0.28677395
144	0x3bc6f982	0.006072224
145	0xbea28154	-0.31739295
146	0xbee2bc31	-0.44284204
147	0xbec458a9	-0.38348892
148	0x3d4a03a0	0.049319863
149	0x3c8003ac	0.01562675
150	0xbe6519b6	-0.22373089
151	0x3eb04fb4	0.3443581
152	0xbe40d62a	-0.18831697
153	0x3d216fdb	0.039413314
154	0xbb31c942	-0.0027128016
155	0x3d0e536e	0.034747534
156	0x3f1554a3	0.5833227
157	0xbb96f9de	-0.004607423
158	0x3d9fc36d	0.078009464
159	0xbe6e1ec1	-0.23253919
160	0xbdaeb612	-0.08530821
161	0xbdca799d	-0.09886477
162	0x3e835b6f	0.25655696
163	0x3ef673dd	0.48135272
164	0xbe2ac95a	-0.16678372
165	0x3e219287	0.15778552
166	0x3c86dc1b	0.016462376
167	0x3e1667a0	0.14687967
168	0x3e96020a	0.2929843
169	0xbf06dd20	-0.5268116
170	0x3f13415e	0.5752162
171	0x3e09a734	0.13442689
172	0xbf09ea89	-0.538735
173	0x3deb0d9c	0.11477205
174	0xbe9f0b5a	-0.31063348
175	0x3daf633b	0.085638486
176	0xbe865d04	-0.2624284
177	0x3d3492b9	0.044085238
178	0x3eb28f93	0.34875163
179	0xbc18e84b	-0.009332727
180	0x3f16c557	0.58894867
181	0xbe17b24d	-0.1481411
182	0xbce85af4	-0.028363682
183	0xbf01207a	-0.5044018
184	0xbee64009	-0.4497073
185	0x3eee754a	0.4657386
186	0x3da8f081	0.082489975
187	0x3eb3af0b	0.35094485
188	0x3c869a2c	0.016430937
189	0x3e181bd3	0.14854364
190	0xbf080f8b	-0.53148717
191	0xbe0c00e9	-0.13672222
192	0x3f232351	0.63725764
193	0x3d8fe7d4	0.070266396
194	0x3e98ce17	0.29844734
195	0xbec9a423	-0.3938304
196	0xbeee9e9d	-0.46605387
197	0xbc950cef	-0.018194644
198	0xbe7bde3a	-0.24596491
199	0xbe14fb3a	-0.1454896
200	0xbf0fd34b	-0.5618178
201	0xbb80aad0	-0.0039266124
202	0x3f289046	0.65845144
203	0xbe6e8b18	-0.23295248
204	0x3ed6d465	0.4195892
205	0xbedb71ae	-0.42860168
206	0x3e4d4025	0.20044
207	0x3efa271f	0.48857972
208	0x3bd82013	0.0065956204
209	0xbf2138d4	-0.6297734
210	0xbeffcfe5	-0.49963298
211	0x3ed640d2	0.4184633
212	0x3e426fd1	0.18987967
213	0xbe4e1056	-0.20123419
214	0xbf1ab34a	-0.60429823
215	0x3d700dd1	0.058606926
216	0x3d8a1d22	0.06743838
217	0xbd73ad7b	-0.059491616
218	0xbccd4f44	-0.02506221
219	0xbeffac30	-0.49936056
220	0x3e94ca15	0.29060426
221	0x3eccd396	0.40005177
222	0x3f1cd7f5	0.61267024
223	0xbdb10650	-0.08643782
224	0xbcd57e8b	-0.026061317
225	0xbed2d75c	-0.4117993
226	0x3e895c12	0.26828057
227	0x3e01c508	0.12672818
228	0x3de1483e	0.11000107
229	0xbdc8747d	-0.097878434
230	0x3ea8558b	0.32877764
231	0x3dba9b0b	0.09111603
232	0xbc299ade	-0.010351865
233	0x3da95c34	0.082695395
234	0x3d68df6d	0.0568537
235	0x3eecc2e4	0.4624244
236	0xbe69d5db	-0.22835486
237	0x3d2b51df	0.041826125
238	0x3cd3b263	0.025841897
239	0x3e7b9e4d	0.24572106
240	0xbec2f86a	-0.3808015
241	0xbd0aa459	-0.03384814
242	0x3f0d067d	0.55088025
243	0x3e9e6555	0.30936685
244	0x3dd985f8	0.10621256
245	0x3e9cf598	0.30656123
246	0x3e96696b	0.29377303
247	0xbdcd5c7d	-0.10027406
248	0xbf14a563	-0.5806486
249	0xbe488465	-0.19581755
250	0xbe8bdaef	-0.2731547
251	0x3eef43da	0.46731454
252	0x3f08c50d	0.53425676
253	0x3ecf8d76	0.40537614
254	0xbe020c66	-0.12700042
255	0xbd3b0559	-0.045659397

rnn.bias_ih_l2 f4 [64]
0	0x3dec239e	0.11530231
1	0x3de7e579	0.11323065
2	0x3e52d53c	0.20589155
3	0x3dc2223f	0.09479188
4	0x3d02f252	0.031969376
5	0x3e200c36	0.15629658
6	0x3e890b6a	0.2676652
7	0xbe0b4f20	-0.13604403
8	0x3e366a57	0.17814003
9	0xbd3a3218	-0.04545793
10	0xbed161e6	-0.40895003
11	0xbe79d1b4	-0.24396402
12	0xbd570c8e	-0.052502207
13	0xbea461d0	-0.32105875
14	0x3c9a0332	0.018800352
15	0x3e85d278	0.26137137
16	0xbe1e469c	-0.15456623
17	0x3e6c4a21	0.23075153
18	0xbe8d79a6	-0.27631873
19	0x3f0d29ec	0.5514209
20	0xbbd31882	-0.0064421305
21	0xbcc92916	-0.024555724
22	0x3e612e51	0.21990325
23	0x3e8b03c8	0.27151322
24	0x3e917db9	0.2841623
25	0xbe044d02	-0.12920001
26	0x3e03d760	0.12875128
27	0xbd774953	-0.06037266
28	0x3ec64c6e	0.38730186
29	0xbe237367	-0.15961991
30	0xbdd92c70	-0.10604179
31	0xbe321e2e	-0.17394325
32	0x3dd134c1	0.1021514
33	0x3d53e8cc	0.051735684
34	0xbdebaab3	-0.11507168
35	0x3d4f6238	0.050630778
36	0x3e62acc5	0.22136219
37	0x3d71c292	0.059023447
38	0xbdeae3b8	-0.11469215
39	0x3e173427	0.14765988
40	0xbc8e1ac3	-0.017346745
41	0x3d9fa435	0.07794992
42	0x3d0dce68	0.034620672
43	0x3cdf8ad2	0.027287874
44	0x3ed0e568	0.40800023
45	0x3ef8b79c	0.48577583
46	0xbe668204	-0.22510535
47	0x3e1534fe	0.14570996
48	0x3d66539f	0.05623209
49	0x3de0d9d4	0.109790474
50	0x3e9a6b1f	0.30159852
51	0xbb643d56	-0.0034826598
52	0x3e10f108	0.14154446
53	0xbe46fe67	-0.19432984
54	0xbdf02eec	-0.117277
55	0xbee96e35	-0.45591894
56	0xbe7a0740	-0.24416828
57	0x3e8abd6b	0.2709764
58	0xbe768e44	-0.24077708
59	0x3e9d3717	0.30706093
60	0x3e02bd24	0.12767464
61	0x3cf7b0ff	0.030235766
62	0xbc5655c0	-0.013081968
63	0xbd8e94f9	-0.06962008

rnn.bias_hh_l2 f4 [64]
0	0x3d8f8d2b	0.070093475
1	0x3e02b547	0.12764464
2	0x3d67f6ea	0.05663196
3	0x3e203bbd	0.15647788
4	0xbbf77f5c	-0.007553024
5	0x3e075a08	0.13217938
6	0x3e666eba	0.22503176
7	0xbdf2d855	-0.11857668
8	0x3e10f213	0.14154844
9	0x3e0fda96	0.14048228
10	0xbee4007d	-0.44531623
11	0xbe204fe2	-0.15655473
12	0x3c716a80	0.014734864
13	0xbeecd73b	-0.46257958
14	0xbc43c51f	-0.011948853
15	0x3eec0945	0.46100822
16	0xbe28c28e	-0.16480467
17	0x3e70022e	0.23438331
18	0xbe0a5560	-0.1350913
19	0x3ee3c8c8	0.4448912
20	0x3ddf41e0	0.109012365
21	0x3d545993	0.051843237
22	0x3dc6b8a3	0.097031854
23	0x3ed58337	0.4170167
24	0x3e04389c	0.1291222
25	0xbe273c54	-0.16331607
26	0x3de32846	0.11091666
27	0x3d16eaf8	0.036845177
28	0x3e95b6a7	0.29240915
29	0xbe23726c	-0.15961617
30	0xbdc8e65a	-0.09809561
31	0xbdc67fb0	-0.09692323
32	0x3dd5a394	0.10431591
33	0x3e228ddf	0.15874432
34	0xbe3d6397	-0.18495022
35	0x3d1df1de	0.03856074
36	0x3e67f9a2	0.22653821
37	0x3d8823e3	0.0664747
38	0xbe376fe4	-0.17913777
39	0x3e6836b9	0.22677125
40	0x3e5c87be	0.21536157
41	0x3b94174f	0.00451938
42	0x3c9c6756	0.019092243
43	0x3d9f92c2	0.07791664
44	0x3eae6b4b	0.34066233
45	0x3ec88e76	0.3917119
46	0xbe080ffa	-0.13287345
47	0x3de95262	0.113926664
48	0x3daed6d7	0.08537071
49	0x3ea172d3	0.31532916
50	0x3e90da76	0.28291672
51	0xbe67137d	-0.22566028
52	0x3de1af44	0.110197574
53	0xbe334443	-0.17506509
54	0xbe855a55	-0.2604548
55	0xbf0abad0	-0.54191303
56	0xbdc9d41d	-0.098549105
57	0x3e72ca02	0.23709872
58	0xbdcda54d	-0.10041294
59	0x3e4d8d4f	0.20073436
60	0x3d8543ba	0.065070584
61	0x3da70dc7	0.08156925
62	0x3db0392f	0.08604657
63	0xbe4c5b41	-0.19956686
